models/accelerate_model_1/trained_models/model1_IDL.pth (torch, 729250 bytes, 11 tensors)

fc1.weight f4 [512, 12]
0	0xbdcb8cdc	-0.09938976
1	0x3ba8c3c0	0.0051502883
2	0x3d6382d8	0.055544704
3	0xbe892a56	-0.26790112
4	0xbd65676c	-0.056006834
5	0xbd9af766	-0.07566719
6	0x3e1d25b4	0.15346414
7	0xbe0dd7c5	-0.13851841
8	0xbe5bf180	-0.21478844
9	0xbe2eebc8	-0.17082131
10	0x3c822c80	0.01589036
11	0x3d980c1c	0.07424185
12	0x3e6da516	0.23207507
13	0xbc0e626e	-0.00869046
14	0x3d7a0b8e	0.061046176
15	0x3e80db6e	0.25167412
16	0xbe3c7a6e	-0.18406078
17	0xbd67cea5	-0.056593556
18	0xbcc67774	-0.024226882
19	0xbe06f6b5	-0.13180049
20	0xbd310230	-0.043214977
21	0x3dce94cf	0.10086977
22	0x3d3086d6	0.04309734
23	0xbe5f5c60	-0.21812582
24	0xbdd5e0a8	-0.104432404
25	0xbe278b0d	-0.16361637
26	0x3e10b93b	0.1413316
27	0xbd8d8658	-0.0691039
28	0x3e8bd6b3	0.2731224
29	0xbe27ee3e	-0.16399476
30	0xbdcb92c6	-0.09940104
31	0xbe20935c	-0.15681213
32	0xbdfbf4a0	-0.12302518
33	0xbcfb0a52	-0.03064457
34	0x3e8d322b	0.27577338
35	0xbe8a4ef9	-0.27013376
36	0xbddc1725	-0.10746602
37	0xbcd16634	-0.02556143
38	0xbe4c0048	-0.19921982
39	0x3e701943	0.23447137
40	0x3e5e5f9a	0.21716157
41	0x3d722cbb	0.05912469
42	0xbe4c43f4	-0.19947797
43	0xbcd7499f	-0.026280222
44	0xbe2283f9	-0.15870656
45	0x3e682854	0.22671634
46	0xbc4fa909	-0.012674578
47	0x3df56744	0.11982587
48	0x3e5b558f	0.21419357
49	0x3c156a60	0.0091196
50	0x3e5a6f40	0.21331501
51	0x3e7bd074	0.24591237
52	0x3e17238a	0.14759651
53	0xbc453a71	-0.012037859
54	0x3e551bbc	0.20811361
55	0x3e21a81e	0.15786788
56	0x3bd4901d	0.006486906
57	0xbe8ffd20	-0.28122807
58	0x3e27504e	0.16339228
59	0xbd7299da	-0.059228756
60	0x3e8f58a5	0.27997318
61	0x3e81670e	0.25273937
62	0xbe777698	-0.24166334
63	0x3e8b4b3c	0.27205837
64	0x3c782eb1	0.015147851
65	0xbdf0d97d	-0.117602326
66	0xbe29e8d2	-0.1659272
67	0xbd8a4c09	-0.06752784
68	0x3e902c1a	0.28158647
69	0x3dadf70e	0.084943876
70	0xbdefdadf	-0.11711668
71	0xbcf81e20	-0.030287802
72	0xbe567050	-0.20941281
73	0x3dfa3b68	0.12218362
74	0xbb92b5c5	-0.004477235
75	0xbdb20d24	-0.086939126
76	0x3cdb4df6	0.026770573
77	0xbe9063c0	-0.28201103
78	0x3e4efd3a	0.20213786
79	0x3e2f3689	0.17110647
80	0xbe3608c5	-0.17776783
81	0x3d7e0df6	0.062025033
82	0x3e0f92eb	0.14020889
83	0x3d0071ef	0.031358656
84	0x3e94cf4a	0.290644
85	0x3e75bb54	0.23997241
86	0xbd9e1579	-0.07718939
87	0x3e7c4c18	0.24638402
88	0xbe6706f0	-0.2256124
89	0xbe0accc9	-0.13554682
90	0xbdcd2cb8	-0.10018295
91	0xbd92d850	-0.071701646
92	0x3e03a3a1	0.12855388
93	0xbd378265	-0.04480209
94	0x3de8938e	0.11356269
95	0x3da740ef	0.08166682
96	0x3d5df2d9	0.054186676
97	0xbe6ed2ec	-0.23322648
98	0x3dd8c370	0.10584152
99	0x3dac77aa	0.084212616
100	0x3dc08919	0.09401149
101	0xbdf75255	-0.120762505
102	0xbe353186	-0.17694673
103	0xbd589e50	-0.052885354
104	0x3e328495	0.17433389
105	0x3e7b6d15	0.2455333
106	0x3e74490e	0.23855993
107	0xbe22432e	-0.1584594
108	0xbe08d6e1	-0.1336322
109	0xbe27e1f4	-0.16394788
110	0xbe6fd6f8	-0.23421848
111	0xbc5ca07d	-0.013465998
112	0xbe1cd569	-0.15315785
113	0xbd4ac6e6	-0.04950609
114	0x3e767f83	0.2407208
115	0x3d552d3e	0.0520451
116	0x3d884c12	0.06655134
117	0x3e5fedc8	0.2186805
118	0xbe8e2089	-0.27759197
119	0xbe760ac6	-0.24027547
120	0x3e91bf22	0.28466135
121	0x3b8f44dd	0.004372223
122	0xbe67d0fc	-0.22638315
123	0xbe2d40a2	-0.16919187
124	0x3e92251d	0.2854394
125	0x3d13fed5	0.0361317
126	0xbe6a732f	-0.22895502
127	0xbe839af7	-0.25704166
128	0x3d944487	0.07239633
129	0xbe793ec2	-0.24340346
130	0x3dc221f9	0.09479136
131	0x3ea116a4	0.31462586
132	0x3c850075	0.01623557
133	0xbe32263a	-0.17397395
134	0xbe595218	-0.21222723
135	0x3e502376	0.20326027
136	0xbe7e2855	-0.24820073
137	0xbe165e0d	-0.14684315
138	0x3d0abc59	0.03387103
139	0x3ded9e24	0.116024286
140	0x3da51075	0.080597796
141	0xbdc8de90	-0.098080754
142	0x3e919cc4	0.28439915
143	0x3e0a0fb5	0.13482554
144	0x3e372d80	0.1788845
145	0x3c9e541c	0.019327216
146	0xbe88afc0	-0.26696587
147	0x3d94084d	0.07228146
148	0xbd6564c0	-0.056004286
149	0xbd0b68a6	-0.034035347
150	0x3d6a3fa5	0.057189602
151	0x3d91aebd	0.07113407
152	0x3df52f3b	0.11971899
153	0xbc3e30b0	-0.011608288
154	0x3e86220d	0.26197854
155	0xbe618f89	-0.2202741
156	0x3e5c3529	0.21504654
157	0x3dfa7f5f	0.12231325
158	0xbe278476	-0.16359124
159	0x3e1ce8d2	0.15323189
160	0x3c4971c6	0.012295192
161	0xbe6aaf6a	-0.22918478
162	0x3c7baeac	0.015361469
163	0xbe1d7087	-0.15374957
164	0xbe5ddcde	-0.21666285
165	0x3e277d35	0.16356356
166	0x3dd5fa18	0.10448092
167	0x3e842fc6	0.25817698
168	0x3e82e336	0.25563973
169	0xbe83f0e7	-0.2576973
170	0xbe5c2eeb	-0.21502273
171	0x3e8bdb93	0.2731596
172	0xbe874e72	-0.26427037
173	0x3dae8ce7	0.08522969
174	0x3df3c9bf	0.119037144
175	0xbe865256	-0.26234692
176	0x3e55bcf4	0.20872861
177	0xbe789500	-0.24275589
178	0xbe769664	-0.24080807
179	0xbc9dbb06	-0.019254219
180	0xbe392091	-0.1807883
181	0x3dd3a0d7	0.10333412
182	0x3d25a71b	0.040442567
183	0x3ded998e	0.11601554
184	0xbd6f88cd	-0.058480073
185	0xbd906cd7	-0.070520096
186	0x3e3778b3	0.17917137
187	0x3d87c7cb	0.06629904
188	0x3c8c9e96	0.017165463
189	0x3e4c9c3e	0.19981477
190	0xbe22e084	-0.15905958
191	0x3e62dbad	0.22154112
192	0xbdce9bfd	-0.10088346
193	0x3dab3cb6	0.08361189
194	0xbdde5e94	-0.10857883
195	0x3ddfa6e4	0.10920504
196	0x3d81123f	0.06302308
197	0x3dc034ee	0.093850955
198	0x3e5c43cc	0.21510237
199	0xbd6d18ed	-0.0578851
200	0x3dfad421	0.12247492
201	0xbe1fed44	-0.15617853
202	0x3e2e778a	0.17037788
203	0x3e28b7fd	0.16476436
204	0x3e15a6b1	0.14614369
205	0x3e03871b	0.12844507
206	0xbe78a900	-0.24283218
207	0xbd740308	-0.059573203
208	0xbe60e434	-0.21962053
209	0xbe005132	-0.12530974
210	0xbe78b5f3	-0.24288158
211	0x3dd8d513	0.10587516
212	0x3e815072	0.25256687
213	0xbe13f527	-0.14448987
214	0xbdf8a27d	-0.12140367
215	0xbd577fa3	-0.05261196
216	0x3e174d07	0.14775477
217	0xbe87f6b5	-0.2655541
218	0xbda3777e	-0.07981776
219	0x3e57ada2	0.2106233
220	0xbe86ac16	-0.26303166
221	0xbe412c36	-0.18864521
222	0x3d90f657	0.070782356
223	0x3d8fe67a	0.07026382
224	0xbe914c45	-0.28378502
225	0xbde3e91f	-0.11128449
226	0x3e202b47	0.15641509
227	0x3d7e0efd	0.062026013
228	0x3e4f3a50	0.20237088
229	0x3d539519	0.051655862
230	0x3e7303c9	0.23731913
231	0x3dd02dae	0.10164963
232	0xbdc42157	-0.095766716
233	0xbdfe7e85	-0.124264754
234	0x3e297874	0.16549855
235	0x3b8dcf10	0.0043276623
236	0xbe77d438	-0.24202049
237	0xbe5fa6b9	-0.21840943
238	0xbe90472c	-0.281793
239	0xbe701a03	-0.23447423
240	0xbd45a345	-0.04825141
241	0x3e6f9b0c	0.2339899
242	0x3e3ba150	0.18323255
243	0xbe0c3757	-0.13692985
244	0xbe14aeb9	-0.14519776
245	0x3dd79188	0.10525805
246	0xbe4a48da	-0.19754353
247	0xbe4826ea	-0.19546095
248	0x3dff13db	0.12454959
249	0x3d9d046f	0.07666861
250	0x3dfa1641	0.12211276
251	0xbb804044	-0.003913911
252	0xbe136c12	-0.14396694
253	0x3e5c4091	0.21509005
254	0x3be1e4c1	0.0068937247
255	0x3e8ed4e3	0.27896795

fc1.bias f4 [512]
0	0xbe02f8c0	-0.12790203
1	0xbdea6b64	-0.114462644
2	0x3e33dd8d	0.17564984
3	0x3e5dda0f	0.21665214
4	0x3d15e276	0.036592923
5	0xbbd28bb2	-0.0064253444
6	0xbe0de421	-0.13856556
7	0xbe153394	-0.14570457
8	0xbdb4857a	-0.08814521
9	0xbe4cf4e8	-0.200153
10	0xbd1a7bca	-0.03771571
11	0xbd8a6c72	-0.067589656
12	0xbe1b92b4	-0.15192682
13	0x3e2c8adc	0.16849846
14	0xbd733fd9	-0.05938706
15	0x3e18ade8	0.1491009
16	0xbe270326	-0.16309795
17	0xba9276d7	-0.0011174333
18	0x3e7efc7a	0.24901
19	0x3d8db03b	0.06918379
20	0xbd9d856b	-0.07691463
21	0xbe853174	-0.26014292
22	0x3c9796f1	0.018504592
23	0xbe8228e0	-0.2542181
24	0xbdfc01b1	-0.1230501
25	0xbe931fe4	-0.28735268
26	0xbe2b6225	-0.16736658
27	0x3e0f1c3e	0.13975617
28	0xbe8647a0	-0.2622652
29	0x3e2addde	0.16686198
30	0xbe15d4bc	-0.14631933
31	0xbe580e28	-0.2109915
32	0x3e8dd72b	0.27703223
33	0xbe046e7c	-0.12932771
34	0xbe31fc64	-0.17381436
35	0x3ea13626	0.31486624
36	0xbd56ae6d	-0.05241244
37	0xbe6eb0ad	-0.23309584
38	0x3ea157c2	0.31512266
39	0x3c8b8a0a	0.017033596
40	0xbe896b9f	-0.2683992
41	0xbdd9c65e	-0.10633539
42	0x3e02132a	0.12702623
43	0xbe25fdc3	-0.16210084
44	0xbe49517c	-0.1965999
45	0x3e8094d5	0.2511355
46	0xbe6e532e	-0.23273918
47	0x3e2fa820	0.17153978
48	0x3e8b4988	0.27204537
49	0xbe24f821	-0.16110279
50	0xbcf278f3	-0.029598689
51	0xbe09432e	-0.13404533
52	0x3e8529da	0.26008493
53	0x3df51e8c	0.11968717
54	0xbe2b4a80	-0.16727638
55	0x3e03d61e	0.12874648
56	0xbd61a014	-0.055084303
57	0xbd616607	-0.05502894
58	0x3c07574f	0.008260562
59	0x3e7e292e	0.24820396
60	0x3e0b405d	0.13598771
61	0x3d70ea3f	0.058817144
62	0x3e67a3d9	0.22621097
63	0xbd8fdb74	-0.07024279
64	0x3c8179b0	0.015805095
65	0xbdb9f1d8	-0.09079331
66	0xbd8d8296	-0.06909673
67	0xbe492f4a	-0.19646946
68	0x3d76aa8d	0.060221244
69	0xbe767a16	-0.2407001
70	0xbd9075ba	-0.070537046
71	0xbe9c8cce	-0.30576175
72	0xbea4912e	-0.32142013
73	0xbe80e71f	-0.2517633
74	0xbe01de4f	-0.1268246
75	0x3ea1bd97	0.31589958
76	0x3c4c262f	0.012460276
77	0x3ded2f1f	0.11581253
78	0xbe88f6f0	-0.26750898
79	0xbdf82920	-0.12117219
80	0x3e0ed5ca	0.13948742
81	0x3cfcda79	0.030865895
82	0x3e791a40	0.2432642
83	0x3b94340e	0.004522807
84	0xbba03760	-0.0048894137
85	0x3e0742b4	0.13209039
86	0x3dce1ef2	0.10064496
87	0x3e58069f	0.21096276
88	0x3e1c5c4b	0.15269582
89	0x3e6b6041	0.22985937
90	0xbd9121db	-0.070865355
91	0xbe8039c8	-0.25044084
92	0xbe9a2ede	-0.30113882
93	0xbe8d86fb	-0.27642044
94	0x3e849e52	0.2590204
95	0xbde6eae8	-0.112752736
96	0xbda8bc61	-0.082390554
97	0x3e58c382	0.2116833
98	0x3de03a5c	0.10948631
99	0xbd31b39a	-0.043384172
100	0xbe7b223d	-0.2452478
101	0xbe3cbb76	-0.18430886
102	0x3d3dcd6f	0.046338495
103	0xbe601482	-0.21882823
104	0xbd700cea	-0.058606066
105	0x3e77a2a6	0.24183139
106	0xbe03cfde	-0.12872264
107	0x3e48ae16	0.19597659
108	0xbe0e953a	-0.13924113
109	0xbe14a664	-0.14516598
110	0xbe826b19	-0.25472334
111	0x3e091040	0.13385105
112	0x3e3369fa	0.17520896
113	0x3e466945	0.19376095
114	0xbe56e800	-0.20986938
115	0x3e85f12b	0.2616056
116	0x3dcd4c84	0.1002436
117	0x3dc61e74	0.09673777
118	0x3e2cae7a	0.16863433
119	0x3e46fcde	0.19432399
120	0xbe0c7504	-0.13716513
121	0x3d256a18	0.040384382
122	0xbd428554	-0.047490433
123	0xbd8ea29b	-0.06964608
124	0xbe24098f	-0.16019271
125	0x3e36bbb1	0.17845036
126	0xbe795955	-0.24350484
127	0xbd87856a	-0.066172436
128	0x3e50490a	0.20340362
129	0xbe187178	-0.14887035
130	0x3e19ed87	0.15032016
131	0xbe3b6bc8	-0.18302834
132	0x3a006a00	0.0004898608
133	0xbe4a83e6	-0.19776878
134	0xbe641a47	-0.22275649
135	0xbe3040a0	-0.17212152
136	0xbe2644d3	-0.16237192
137	0x3e960831	0.29303125
138	0xbd8d1c5b	-0.06890174
139	0xbd173d2a	-0.036923565
140	0xbe09bf77	-0.13451944
141	0x3e886663	0.26640615
142	0xbe1f9d15	-0.15587266
143	0x3e852d7f	0.26011273
144	0x3e74a1b0	0.23889804
145	0xbe51366f	-0.20430921
146	0xbd8813a7	-0.066443734
147	0x3def960d	0.11698542
148	0xbcf43c1f	-0.029813824
149	0xbcf5acd1	-0.029989632
150	0xbea4986f	-0.32147548
151	0xbc8a25e7	-0.016863776
152	0x3d534235	0.05157681
153	0xbe8be68d	-0.27324334
154	0xbd8566a0	-0.06513715
155	0xbc4c8c43	-0.012484613
156	0xbe1f2c65	-0.15544279
157	0x3ea0b21b	0.31385884
158	0x3e7f6e31	0.24944378
159	0x3e71db4d	0.23618813
160	0x3c64bc14	0.013960857
161	0xbd89d7eb	-0.06730636
162	0x3c4ee871	0.012628661
163	0xbe36210b	-0.17786042
164	0xbdaa175b	-0.08305236
165	0xbe89d18e	-0.2691769
166	0xbe90a727	-0.28252527
167	0xbe0aba4c	-0.13547629
168	0x3e354bf7	0.1770476
169	0x3d4e8089	0.05041555
170	0xbcca5cf1	-0.024702521
171	0xbe7174a1	-0.23579647
172	0xbd39a68b	-0.045324843
173	0x3d0862c8	0.03329733
174	0x3d2a9438	0.04164526
175	0x3c777193	0.015102762
176	0x3dd67672	0.104718104
177	0x3e360853	0.17776613
178	0xbe8a8b09	-0.270592
179	0xbb8cb713	-0.004294285
180	0xbd0cfead	-0.034422565
181	0xbe647f43	-0.22314171
182	0xbdea51fe	-0.1144142
183	0x3deebb5e	0.11656831
184	0x3e3e0d66	0.18559799
185	0x3d4f97d3	0.0506819
186	0xbddd2494	-0.10797992
187	0x3dcec5ed	0.10096345
188	0xbe186c86	-0.14885148
189	0x3d98ee1e	0.07467292
190	0xbe8a48d4	-0.27008688
191	0x3cbbd192	0.02292708
192	0x3e868f77	0.2628133
193	0x3d97b70f	0.074079625
194	0x3e8e0c5f	0.27743813
195	0x3e0d9162	0.1382499
196	0x3e7fde60	0.24987173
197	0x3d9ca6d4	0.076490074
198	0xbe30bd0c	-0.17259616
199	0x3b93b781	0.0045079594
200	0xbd4c65b8	-0.049901694
201	0xbe238e99	-0.15972365
202	0x3e218cd4	0.15776378
203	0x3ad4bece	0.0016231181
204	0x3e6f6356	0.23377737
205	0x3dd9af54	0.10629144
206	0xbdb70f7c	-0.089385
207	0xbe77992f	-0.24179529
208	0xbde8243f	-0.113350384
209	0xbe80d3d8	-0.25161624
210	0xbc98c713	-0.018649613
211	0xbe87f81b	-0.26556477
212	0x3e50fbdb	0.20408575
213	0x3d203271	0.039110605
214	0x3e8ae254	0.271258
215	0xbe4b0ab4	-0.19828302
216	0xbd9db7d4	-0.07701078
217	0x3e82ed22	0.25571543
218	0x3e5d84b5	0.21632655
219	0x3e0ba914	0.13638717
220	0x3e182a6e	0.14859936
221	0x3d132cad	0.035931278
222	0xbe852dbb	-0.26011452
223	0xbdbd5e24	-0.092464715
224	0x3daf46af	0.08558404
225	0xbe22dc73	-0.15904407
226	0xbd2f0d62	-0.042737372
227	0x3e2a9519	0.16658439
228	0x3d5834af	0.052784618
229	0xbe467810	-0.19381738
230	0xbe74995e	-0.2388663
231	0x3d8f81a9	0.070071526
232	0xbe1fd3bc	-0.15608114
233	0x3d47429a	0.0486475
234	0xbe093f3a	-0.13403025
235	0xbe832a7f	-0.2561836
236	0x3e80178c	0.25017965
237	0x3dda267b	0.10651871
238	0x3c893c14	0.01675228
239	0x3e74e272	0.23914507
240	0x3d31bae2	0.043391116
241	0x3b8bf563	0.0042711957
242	0x3c80a7ad	0.015704954
243	0x3b894667	0.004189301
244	0x3d1923bf	0.037387606
245	0x3dc36430	0.095405936
246	0xbdbfff29	-0.0937484
247	0x3d1ba41d	0.037998307
248	0xbe222824	-0.15835625
249	0xbe628d49	-0.22124209
250	0xbe362409	-0.17787184
251	0x3e5b8e7e	0.21441075
252	0x3dad0587	0.0844832
253	0x3df24bfd	0.118309
254	0x3d114e15	0.035474855
255	0x3d93b188	0.07211596

fc2.weight f4 [256, 512]
0	0xbd1824f4	-0.037144616
1	0x3d10bf57	0.035338726
2	0xbd6589a6	-0.056039475
3	0xbbd6f7f6	-0.006560321
4	0x3d1d8841	0.03846002
5	0x3d177a6f	0.036981996
6	0xbd69badb	-0.057062965
7	0x3d1864e3	0.037205588
8	0xbd02cab5	-0.031931598
9	0x3b3229a9	0.0027185476
10	0xbcad9055	-0.021186987
11	0xbcbd4e93	-0.023108756
12	0x3cb64bc7	0.02225293
13	0x3cc7442e	0.024324503
14	0xbc9d0528	-0.019167498
15	0x3c9a56f7	0.018840296
16	0xbb91c757	-0.004448812
17	0xbca52db5	-0.020163396
18	0xbcaf71a2	-0.021416489
19	0x3c7516bb	0.014959033
20	0x3cd55c89	0.0260451
21	0x3c1a1376	0.009404054
22	0x3d05a80e	0.032630973
23	0x3d09df7f	0.033660408
24	0xbc4acf40	-0.012378514
25	0xbc197a56	-0.009367546
26	0x3c2af5ff	0.010434627
27	0xbd16d18a	-0.036820926
28	0x3c48ab94	0.012247939
29	0x3d108549	0.03528336
30	0xbc7913aa	-0.015202442
31	0xbcb54cca	-0.022131342
32	0x3d147203	0.036241543
33	0xbd52a3f4	-0.05142589
34	0xbc39b786	-0.011335259
35	0x3cb88f31	0.022529216
36	0xbcb5a8fd	-0.022175306
37	0xbdd9b96b	-0.10631069
38	0xbcdaafee	-0.026695218
39	0xbd51af5e	-0.051192634
40	0x3caa8422	0.020814959
41	0xbd9504d4	-0.072763115
42	0xbc6c03c9	-0.014405199
43	0xbd10065a	-0.035162307
44	0xbd09949e	-0.033588998
45	0xbcd31ac3	-0.025769597
46	0xbd52dbd2	-0.05147917
47	0x3cf5f31a	0.030023146
48	0x3cc9585b	0.024578264
49	0xbc3c7040	-0.011501372
50	0xbd655b67	-0.05599537
51	0xbb2777bb	-0.0025553543
52	0x3d259f09	0.04043487
53	0x3cfc8e86	0.03082968
54	0xbd645cbb	-0.055752497
55	0x3d140867	0.036140826
56	0xbaff4058	-0.0019474132
57	0xbd393a3c	-0.045221552
58	0xbd8f2069	-0.069886036
59	0xbd0836df	-0.033255454
60	0xbb823147	-0.0039731595
61	0xbd2b3e13	-0.041807245
62	0x3c7af412	0.01531698
63	0x3c5ae76f	0.013360842
64	0x3bd70da0	0.0065629035
65	0xbc8116fa	-0.015758026
66	0xbbb0082c	-0.005372068
67	0xbd034957	-0.032052364
68	0xbda390c6	-0.07986598
69	0x3d1a82e3	0.03772248
70	0xbbae33c7	-0.005316231
71	0xbb9af2e2	-0.004728661
72	0xbd0bf3e3	-0.034168135
73	0x3b80e27e	0.00393325
74	0xbd91369c	-0.07090494
75	0xbcb8bd0c	-0.022551082
76	0x3d36c529	0.04462162
77	0xbd36884e	-0.044563584
78	0xbc701a0a	-0.014654646
79	0x3a843cef	0.001008896
80	0xbda46bdd	-0.08028386
81	0x3ba6a226	0.0050852476
82	0x3d2f4429	0.042789612
83	0xbd68f513	-0.056874346
84	0xbd341e2d	-0.04397409
85	0xbb573fcc	-0.0032844422
86	0x3d1e4fc5	0.038650293
87	0xbd5581a2	-0.05212558
88	0xbc8203b5	-0.015870908
89	0xbc93e0f8	-0.01805161
90	0x3d046171	0.03231949
91	0xbd1d06ac	-0.03833644
92	0xbde3ba3f	-0.11119508
93	0x3cf1bab6	0.029507976
94	0xbceeaa87	-0.029134048
95	0xbd953033	-0.07284584
96	0x3d24e06d	0.04025309
97	0x3c8f69e0	0.01750654
98	0x3d112761	0.035437945
99	0xbd024d3b	-0.031811934
100	0xbc14fa6e	-0.00909291
101	0x3ccdeeb0	0.02513823
102	0x3cc19070	0.023628443
103	0xbd1057e3	-0.035240065
104	0x3d0d477a	0.034491993
105	0xbc716730	-0.0147340745
106	0x3d1f22c3	0.03885151
107	0xbd1868e7	-0.037209418
108	0xbd11e25d	-0.035616267
109	0x3cfcc1f2	0.0308542
110	0x3ca1aad8	0.019734785
111	0xbbb883e0	-0.005630955
112	0xbd681d73	-0.05666871
113	0xbc9511d6	-0.018196981
114	0xbcaf13b7	-0.021371705
115	0xbc7a51fe	-0.0152783375
116	0x3cebeb52	0.028798733
117	0xbd2b858a	-0.0418754
118	0x3bdfcaea	0.006829609
119	0xbabd0e36	-0.0014423791
120	0xbd7545ee	-0.059881143
121	0xbcfe8f88	-0.0310743
122	0x3d29d18a	0.041459598
123	0xbda66a5e	-0.08125757
124	0xbccd98ca	-0.02509727
125	0xbd270d17	-0.040783968
126	0xbca9d736	-0.020732503
127	0x3ce15f09	0.027511137
128	0xbda0fd04	-0.07860759
129	0xbcfd3d1e	-0.030912932
130	0xbbb86d45	-0.0056282603
131	0x3ada42d8	0.0016652001
132	0x3cca4a42	0.024693612
133	0xbce22abc	-0.027608268
134	0xbd298531	-0.041386787
135	0xbceb90c3	-0.028755551
136	0xbccf94b5	-0.025339464
137	0x3d486cda	0.048931934
138	0xbcca5080	-0.024696589
139	0xbc0c24ee	-0.008553727
140	0x3c3da24f	0.011574342
141	0xbd028439	-0.03186438
142	0x3ce55b57	0.027997656
143	0xbbc31fc1	-0.005954713
144	0xbc7f0d82	-0.015567185
145	0xbd6f9aa3	-0.058497082
146	0xba30492b	-0.000672477
147	0x3d16b715	0.036795694
148	0x3c672b72	0.014109479
149	0x3cf782c2	0.030213717
150	0x3c74d91e	0.014944343
151	0xbcabee21	-0.020987572
152	0xbd010f8d	-0.03150897
153	0xbdaf3d30	-0.085565925
154	0xbd3423f6	-0.043979608
155	0xbd2ee558	-0.042699188
156	0xbda445d2	-0.0802113
157	0x3ce129dc	0.02748578
158	0x3d4271d7	0.047471847
159	0x3d22803c	0.039673075
160	0x3cf27891	0.029598506
161	0xbd20e697	-0.039282408
162	0xbbe5394b	-0.0069953552
163	0xbcd3ef24	-0.025870867
164	0xbd12e8ef	-0.035866674
165	0x3c3396a0	0.010961205
166	0xbdaa05fa	-0.08301921
167	0xbd979e8f	-0.074032895
168	0xbd1bd4bb	-0.038044672
169	0xbbaff793	-0.0053700893
170	0x3c8b58cb	0.017010113
171	0xbc82c226	-0.015961718
172	0xbca2906a	-0.019844253
173	0x3d0126b1	0.03153104
174	0xbc6a11b6	-0.014286449
175	0xbcc81d27	-0.024427963
176	0x3b833964	0.004004644
177	0xbd219af0	-0.0394544
178	0x3c6bb024	0.014385257
179	0xbc9b75a8	-0.018977001
180	0x3d14cdc2	0.03632904
181	0xbd0c36ea	-0.034232058
182	0xbc88cea9	-0.016700106
183	0xbd0c15c6	-0.034200452
184	0x3ce39c7b	0.027784577
185	0xbcdeb736	-0.027186971
186	0x3b2ec023	0.0026664815
187	0xbce05865	-0.0273859
188	0xbc73741c	-0.014859226
189	0xbd0744d0	-0.03302461
190	0xbc24a3d1	-0.0100488225
191	0xbd153374	-0.036426023
192	0x3ccf60bb	0.02531468
193	0xbb295303	-0.0025836832
194	0x3c34197e	0.010992406
195	0xbc74f992	-0.01495208
196	0xbcc2aaee	-0.023763146
197	0xbd30fd71	-0.04321045
198	0xbd1795d9	-0.03700814
199	0xbd0b9165	-0.034074206
200	0xbc594548	-0.013261147
201	0x3d284823	0.04108442
202	0x3d0c0028	0.034179837
203	0xbcf59e91	-0.029982837
204	0x3ce2ced0	0.027686507
205	0xbd35fa76	-0.04442831
206	0xbd0f308d	-0.03495841
207	0xbd7ea0ff	-0.062165257
208	0xbd02a657	-0.031896915
209	0x3d168a4d	0.036752988
210	0xbc5be922	-0.013422282
211	0xbdda5409	-0.1066056
212	0xbc15f585	-0.009152775
213	0x3d0e37e7	0.03472128
214	0xbcc24f91	-0.02371958
215	0x3c8e4e2b	0.017371258
216	0xbd507ca8	-0.05090013
217	0x3cf09b07	0.029370798
218	0x3ca5f564	0.020258613
219	0xbd58dfe2	-0.052947886
220	0x3caf338e	0.021386888
221	0x3be75e54	0.0070608053
222	0xbdb06fec	-0.086150974
223	0xbbdbbe81	-0.0067060594
224	0x3cf6b8c5	0.030117402
225	0x3b1b55c0	0.0023702234
226	0xbc895137	-0.016762359
227	0x3cff500f	0.031166105
228	0xbd2ae58c	-0.04172282
229	0xbd482d1a	-0.048871137
230	0x3c9e1de3	0.01930136
231	0x3b57f132	0.003295016
232	0x3c9c5b86	0.01908661
233	0x3c401a19	0.011724972
234	0x3b6d7200	0.003623128
235	0xbbae1475	-0.0053124973
236	0x3d051b93	0.032497
237	0x3d3a0de9	0.045423422
238	0x3c94046b	0.018068513
239	0x3c5b01bb	0.013367112
240	0xbd377e23	-0.044798028
241	0xbda7712c	-0.08175883
242	0xbc762a61	-0.015024752
243	0xbc7b88c9	-0.015352436
244	0x3cf07a3b	0.029355159
245	0x3d21aabd	0.03946947
246	0xbd001a83	-0.031275284
247	0x3bea85bd	0.007157056
248	0xbd3d96e3	-0.046286475
249	0x3cdbcb67	0.026830388
250	0xbd1a1427	-0.037616875
251	0x3bd1e7f5	0.0064058253
252	0x3b915f63	0.00443642
253	0xbcbd2c56	-0.02309243
254	0xbd1df1d1	-0.038560692
255	0xbbcbb734	-0.006216908

fc2.bias f4 [256]
0	0x3d85ea71	0.06538857
1	0xbcf118bb	-0.029430738
2	0x3c8bded8	0.017074034
3	0xbbe04ae5	-0.0068448656
4	0xbc9edce5	-0.01939244
5	0x3da15e7a	0.07879348
6	0x3c400613	0.011720198
7	0x3cbede15	0.023299256
8	0xbc20418b	-0.009781252
9	0xbc54569d	-0.012960103
10	0x3d000fb3	0.031264972
11	0x3d8926d1	0.06696857
12	0x3d0a0258	0.03369364
13	0x3cefecd8	0.02928774
14	0x3d44b075	0.048019845
15	0xbca67320	-0.020318568
16	0x3d086192	0.033296175
17	0xbcb0b624	-0.021571226
18	0xbcd4d4f8	-0.025980458
19	0x3d53e407	0.051731136
20	0x3d82807f	0.06372165
21	0xbc9f6575	-0.019457558
22	0xbd32125f	-0.04347455
23	0x3c68521d	0.014179734
24	0x3d0ce079	0.03439376
25	0xbc465c68	-0.012106992
26	0x3c5b2e6a	0.013377765
27	0x3d5c5128	0.053788334
28	0x3c3fd5b2	0.011708664
29	0xbcf6bcce	-0.030119326
30	0x3cf8474f	0.03030744
31	0xbc5193b9	-0.0127915675
32	0xbb8e251f	-0.0043379213
33	0xbd004b1a	-0.031321622
34	0xbc2c768c	-0.010526311
35	0x3d0ec934	0.03485985
36	0x3cf24549	0.029574053
37	0x3cd6bfad	0.026214445
38	0x3c4cecc8	0.012507625
39	0xba92d3fc	-0.0011202092
40	0xbba90b3a	-0.005158809
41	0xbc880c94	-0.01660756
42	0xbd228743	-0.039679777
43	0xbc9fe502	-0.01951838
44	0x3d067237	0.032823768
45	0xbc565346	-0.013081377
46	0xbcf5473d	-0.029941196
47	0x3be20be3	0.0068983897
48	0x3c2f5c2c	0.010703128
49	0xbd169eb6	-0.036772452
50	0x3bb565d4	0.0055358205
51	0x3d4c5f14	0.04989536
52	0x3d0b5d8d	0.034024764
53	0x3d3ea5cf	0.046544846
54	0x3cfbc1e8	0.03073211
55	0x3d4f46e7	0.050604727
56	0x3d1284c6	0.035771154
57	0xbb98a89a	-0.0046587707
58	0x3c88ed35	0.016714672
59	0xbd20a793	-0.03922231
60	0x3ce8a078	0.02839683
61	0x3d80a552	0.06281532
62	0x3c7807b0	0.015138552
63	0xbc53164a	-0.012883732
64	0x3cb16bf7	0.021657927
65	0x3c0083ca	0.007843921
66	0x3d9521f1	0.072818644
67	0x3cad0ffb	0.021125784
68	0x3b84f0ba	0.004057017
69	0x3c42f3b0	0.01189892
70	0x3c1f23bb	0.009713109
71	0x3cc5125f	0.024056612
72	0x3c88e07a	0.016708601
73	0x3db24e57	0.087063484
74	0xbbc82d0b	-0.006108885
75	0xbca24b73	-0.019811368
76	0x3d0ee9b3	0.03489084
77	0x3ce1c712	0.027560744
78	0xbd1f9736	-0.038962565
79	0xbbf40c23	-0.007447736
80	0x3d3ca14b	0.04605226
81	0x3c4db9b4	0.012556482
82	0x3db012fa	0.085973695
83	0xbc2b5627	-0.010457552
84	0xbd06f08e	-0.032944255
85	0x3c3ad28f	0.01140274
86	0xbd02daad	-0.031946827
87	0x3ce46bf6	0.027883511
88	0x3c365eaa	0.011130968
89	0x3d0e03fa	0.03467176
90	0xbd4c5133	-0.049882125
91	0xbd1cbfab	-0.038268726
92	0xbd261426	-0.04054656
93	0x3cd735d6	0.026270788
94	0xbc8d83e3	-0.017274803
95	0x3d6582d4	0.05603297
96	0x3cb2f3b3	0.02184472
97	0x3d16e45e	0.03683888
98	0x3d0520aa	0.032501854
99	0x3cbc34cf	0.0229744
100	0x3b6fd6c9	0.0036596528
101	0x3bd10b8c	0.0063795503
102	0xbcaa3534	-0.020777322
103	0x3ce06dd9	0.02739613
104	0x3cae993a	0.021313298
105	0x3d64507a	0.05574081
106	0x3c981406	0.018564235
107	0x3d9d30cd	0.07675324
108	0xbcccf7bc	-0.025020473
109	0xbca51766	-0.020152759
110	0x3c33aa81	0.010965944
111	0x3ce6cda7	0.028174235
112	0xbcb8f2c3	-0.022576695
113	0xbd55e371	-0.05221886
114	0xbd108345	-0.03528144
115	0x3b29cda3	0.0025909923
116	0x3d7f9eca	0.062407292
117	0x3c4f4672	0.012651073
118	0xbacd6d04	-0.0015672748
119	0x3d42dc7c	0.04757355
120	0x3d6e23cb	0.058139604
121	0xbd596930	-0.05307883
122	0xbbb91ec9	-0.005649422
123	0x3c7b48c2	0.015337171
124	0xbc11f285	-0.008907919
125	0xbc4fdb81	-0.012686611
126	0x3d831d18	0.064020336
127	0x3cb08f7d	0.021552796
128	0x3d139c56	0.036037765
129	0x3d8ef138	0.069796026
130	0x3ce80e82	0.02832723
131	0xbc9d6dcb	-0.019217392
132	0xbbe54f59	-0.0069979844
133	0x3d181014	0.03712471
134	0x3d0a22a7	0.033724453
135	0x3c511d97	0.012763402
136	0xbbbfd3c7	-0.0058541032
137	0xbd30a6b4	-0.04312773
138	0x3c42ded9	0.011893951
139	0xba659ad8	-0.000875873
140	0x3d858445	0.06519369
141	0x3bc6ff2a	0.0060728984
142	0x3d03b911	0.032158915
143	0x3d4a7926	0.049431942
144	0x3c93c8b0	0.018040031
145	0xbbca8666	-0.0061805723
146	0x3cc40713	0.023929155
147	0x3d0a44da	0.03375707
148	0x3bbbed21	0.005735055
149	0xbcb9d5dc	-0.022684984
150	0x3aef1f99	0.001824367
151	0xbb99a47a	-0.0046887966
152	0x3ce06256	0.02739064
153	0x3ca796ac	0.020457588
154	0x3d65b386	0.05607941
155	0xbc43f72c	-0.011960786
156	0xbc90bb3c	-0.017667405
157	0x3cbfc286	0.023408186
158	0x3d7d6e3f	0.061872717
159	0xbae2632e	-0.001727199
160	0x3aa36e37	0.001246876
161	0xbd366556	-0.044530235
162	0x3ce469c4	0.027882464
163	0x3c1615ba	0.009160453
164	0xbc2276a0	-0.009915978
165	0x3c2ff453	0.010739404
166	0xbcd3c823	-0.025852269
167	0x3d40ad19	0.04704008
168	0xbc95bdca	-0.018278975
169	0x3cd35480	0.025797129
170	0x3cdfcf7e	0.02732062
171	0x3d28ec4c	0.041240975
172	0x3d3e5204	0.046464935
173	0x3cd970dd	0.026543075
174	0x3c67e8d9	0.014154636
175	0x3c36d6b9	0.011159592
176	0xbd09bd44	-0.033627763
177	0x3c7520f3	0.014961469
178	0x3d45b0f1	0.048264448
179	0x3c4587d8	0.012056313
180	0x3d00b753	0.03142483
181	0x3cd14c05	0.025548944
182	0x3d31b6af	0.04338711
183	0x3d993958	0.074816406
184	0xbc322764	-0.010873649
185	0xbd022455	-0.03177293
186	0x3cd3ad1c	0.02583938
187	0x3cef852f	0.029238312
188	0x3cfbdfee	0.030746426
189	0x3d55f5aa	0.052236237
190	0x3c565462	0.013081642
191	0x3cd2c7c1	0.025730016
192	0x3aefb430	0.0018287953
193	0x3c471711	0.012151496
194	0x3d879eab	0.066220604
195	0x3cdfdd35	0.02732716
196	0xbc5a72f7	-0.013333074
197	0xbc2ec7e0	-0.010667771
198	0xbd0dfec8	-0.034666806
199	0xbbfae946	-0.007657203
200	0xbca8cd8f	-0.02060583
201	0x3cb43c4a	0.022001404
202	0x3c51f015	0.012813588
203	0x3c2a1fa3	0.010383519
204	0x3c5b3829	0.013380089
205	0x3ccdb894	0.025112428
206	0x3d936890	0.07197678
207	0x3c1b91e0	0.0094952285
208	0xbcfb8929	-0.030705051
209	0xbcc9b82e	-0.024623957
210	0x3d1e4806	0.038642906
211	0x3c578b26	0.013155734
212	0x3ce5e85b	0.028064897
213	0x3ccb28d2	0.024799738
214	0xbbd547eb	-0.0065088174
215	0x3ce760c0	0.028244376
216	0x3ce83fe8	0.028350785
217	0xbd126100	-0.035737038
218	0xbd0e6b17	-0.034770098
219	0x3d60bcd2	0.054867573
220	0x3cd0fa7a	0.025510062
221	0x3d3cb408	0.04607013
222	0xbcf44c44	-0.029821523
223	0x3db2a6a1	0.08723188
224	0xbcf77815	-0.030208627
225	0x3d13ccb0	0.036083877
226	0xbd469e39	-0.048490737
227	0x3cbe9ba9	0.023267584
228	0x3d4af789	0.049552474
229	0x3d828a1b	0.06373998
230	0x3d4ab909	0.04949287
231	0xb9ab265f	-0.0003264425
232	0xbc1d7af6	-0.009611836
233	0xbcc61d1b	-0.0241838
234	0xbcf97750	-0.0304524
235	0xbc1b9ae4	-0.009497378
236	0xbd29a3aa	-0.041415848
237	0x3ce82170	0.028336257
238	0xba513dab	-0.00079819065
239	0x3d9643bf	0.0733714
240	0x3cc6ce9f	0.024268446
241	0x3da43d2e	0.080194816
242	0x3c9ed065	0.01938648
243	0x3c62fdae	0.013854427
244	0x3c1815f0	0.009282574
245	0xba825298	-0.0009942828
246	0x3b8f2700	0.004368663
247	0x3b817911	0.0039512
248	0x3d08d71b	0.033408266
249	0xbc46c827	-0.012132681
250	0xbc96cf7d	-0.018409485
251	0x3c914ca6	0.017736744
252	0x3da104f0	0.0786227
253	0x3d441b02	0.04787732
254	0xbc29d0f6	-0.010364762
255	0xbb7cd849	-0.0038581064

fc3.weight f4 [128, 256]
0	0x3d396079	0.04525802
1	0x3bae013a	0.005310205
2	0xbbd6850d	-0.0065466226
3	0x3d3f7a9c	0.04674779
4	0x3d5be26a	0.053682722
5	0xbc3153f4	-0.010823239
6	0xbc737010	-0.014858261
7	0xbd5fbda6	-0.054624222
8	0xbd267910	-0.040642798
9	0x3a8ff227	0.0010982201
10	0xbcfb50f9	-0.03067826
11	0x3d4c0af0	0.04981512
12	0xbca4132b	-0.020028671
13	0xbd743419	-0.059619997
14	0x3cc1df72	0.023666117
15	0x3c9870b4	0.018608429
16	0xbd6169ef	-0.055032667
17	0xbc66892c	-0.01407079
18	0xbc88084b	-0.016605517
19	0x3d2447a8	0.0401074
20	0xbd01d82a	-0.03170029
21	0xbc4274bd	-0.011868653
22	0x3caa61c2	0.020798568
23	0xbd7f738e	-0.06236606
24	0x3af562b6	0.0018721435
25	0x3d1ce68c	0.038305804
26	0x3be3f3a9	0.006956537
27	0xbb8a9aa6	-0.0042298613
28	0xbc4bd768	-0.012441494
29	0xbd4d3b8e	-0.050105624
30	0xbd84fd99	-0.064936824
31	0xbb6264f1	-0.003454503
32	0xbd2ff4cd	-0.04295807
33	0xba26b69d	-0.0006359609
34	0x3ca1728f	0.019707946
35	0xbce729cd	-0.028218174
36	0xbd72492c	-0.059151813
37	0xbc917ee5	-0.017760703
38	0xbd7b3668	-0.061331183
39	0xbd7785f5	-0.060430486
40	0xbd8034d2	-0.06260075
41	0x3cb4f25c	0.022088222
42	0xbcc32488	-0.02382113
43	0xbd0f4c9f	-0.03498518
44	0xbcc8594b	-0.02445664
45	0xbd71727d	-0.058947075
46	0x3d1f9105	0.03895666
47	0xbb7b5009	-0.0038347265
48	0x3ba52db4	0.0050408486
49	0xbd044960	-0.03229654
50	0xbd24d592	-0.04024274
51	0x3d01b461	0.031666163
52	0xbd089c64	-0.03335227
53	0x3d38478a	0.0449901
54	0xbc4a48c0	-0.0123464465
55	0xbd03326e	-0.032030515
56	0x3b86b0bb	0.0041104234
57	0x3c6e86bb	0.014558489
58	0x3d0119d2	0.031518765
59	0x3d360d43	0.04444624
60	0x3cfbef2b	0.030753693
61	0x3d4ab411	0.04948813
62	0x3b8d19b2	0.0043060416
63	0xbd797ec3	-0.060911905
64	0xbd4af39d	-0.049548734
65	0xbd8358af	-0.064133994
66	0xbd653e01	-0.055967335
67	0x3c86ef3a	0.016471494
68	0x3b370520	0.0027926639
69	0x3d3dd06b	0.04634134
70	0x3bde7903	0.006789328
71	0xbd666acb	-0.05625419
72	0xbd8f407a	-0.0699472
73	0xbd2656a5	-0.040609974
74	0xbb1e59ef	-0.0024162491
75	0x3b8a89a4	0.004227834
76	0xbd4d1f54	-0.050078705
77	0xbd8da95a	-0.06917067
78	0x3d39e4c3	0.04538418
79	0xbd00b679	-0.03142402
80	0xbc4816f3	-0.012212503
81	0x3c9f8d92	0.019476686
82	0xbcfdefe4	-0.030998178
83	0x3b9809c5	0.0046398365
84	0xbd43cc6f	-0.047802385
85	0x3ba586fb	0.0050514913
86	0xbc0b9147	-0.008518524
87	0x3cc1d395	0.02366046
88	0xbd10570a	-0.035239257
89	0xbbbe4e9d	-0.0058077113
90	0x3d5e646d	0.054294992
91	0x3bd2bcf0	0.0064312145
92	0xbd17ebb9	-0.037090037
93	0xbbc1820b	-0.005905395
94	0x3d354928	0.04425922
95	0x3c8ec192	0.017426286
96	0x3d2583ce	0.040408902
97	0x3b2442fc	0.002506434
98	0xbd509cf1	-0.05093092
99	0xbb864711	-0.0040978272
100	0xbd40cd3c	-0.047070727
101	0xbd895de9	-0.06707365
102	0x3bbf4dfd	0.0058381543
103	0xbd845686	-0.064618155
104	0xbd5e1ab2	-0.054224677
105	0x3d401d58	0.046902984
106	0xbd10d77c	-0.035361752
107	0xbd49e6dd	-0.049292434
108	0x3d1a7aeb	0.03771488
109	0xbc7d3603	-0.015454772
110	0xbd599c7e	-0.05312776
111	0x3cd05529	0.025431233
112	0xbd3b88fa	-0.045784928
113	0x3ce75ea7	0.028243376
114	0xbd218a6b	-0.039438646
115	0xbcd3deb2	-0.025863025
116	0xbd79d265	-0.060991663
117	0xbd5e72c6	-0.054308675
118	0xbd8d1693	-0.06889071
119	0xbcdee8e7	-0.027210666
120	0xbca53469	-0.020166593
121	0xbd2f213f	-0.042756315
122	0xbcfcab5d	-0.030843431
123	0xbd8b930f	-0.068151586
124	0xbcfcdcc2	-0.030866984
125	0xbcec25a9	-0.028826552
126	0xbc4dfe35	-0.012572815
127	0x3d2f588f	0.042809065
128	0xbd470f6c	-0.04859869
129	0x3a170c5f	0.00057620363
130	0x3d2263b6	0.039645873
131	0x3d093187	0.0334945
132	0x3c1fbce1	0.009749622
133	0x3c82bc7c	0.015959017
134	0xbd58019b	-0.052735906
135	0x3d5be522	0.053685315
136	0xbcf7fb7f	-0.03027129
137	0xbca1d6b0	-0.019755691
138	0xbd4a8dee	-0.04945176
139	0x3c8dba94	0.017300881
140	0x3d472f0e	0.04862886
141	0xbb494755	-0.0030712683
142	0xbd02677d	-0.031836975
143	0x3d5031b9	0.05082867
144	0xbd582684	-0.052771106
145	0xbd74d406	-0.059772514
146	0x3c85feaf	0.016356794
147	0xbca05644	-0.019572385
148	0xbd82acbb	-0.06380602
149	0xbcea2483	-0.028581863
150	0xbb934580	-0.004494369
151	0x3d285223	0.041093957
152	0x3ce5f7ee	0.028072324
153	0x3a84a85e	0.0010120978
154	0x3cafe829	0.021473007
155	0xbd72f3d0	-0.05931455
156	0xbc63f3ac	-0.013913076
157	0xbcecda98	-0.028912827
158	0xbc1dbcc0	-0.009627521
159	0xbd33229d	-0.04373418
160	0xbd86ce2b	-0.06582292
161	0xbcb82a48	-0.022481099
162	0xbba31ee7	-0.004978049
163	0x3d223ea7	0.03961053
164	0x3d047cd8	0.032345623
165	0x3b033417	0.0020020062
166	0x3c51c9c9	0.012804457
167	0xbc8edf32	-0.017440412
168	0x3d4029b5	0.046914775
169	0x3cdcd13a	0.026955236
170	0x3c6fb455	0.014630397
171	0xbc854fa7	-0.016273333
172	0xbd100b26	-0.035166882
173	0x3c350c30	0.011050269
174	0x3b12cc90	0.002239976
175	0xbd2399bc	-0.039941534
176	0x3d28ba53	0.041193318
177	0x3d335ab3	0.04378767
178	0xbd97d385	-0.07413391
179	0x3d4665a7	0.048436787
180	0x3ba88828	0.005143184
181	0xbd6c7103	-0.057724964
182	0x3d026e9d	0.03184377
183	0x3ce9c60d	0.02853682
184	0x3c9e6aad	0.019337976
185	0xbca224c5	-0.019792924
186	0x3c0b8b1a	0.008517051
187	0xbd95176c	-0.07279858
188	0x3d53df8d	0.051726867
189	0xbd7289dc	-0.059213504
190	0x3ca3bccb	0.019987484
191	0x3d03bd21	0.03216279
192	0xbb876b29	-0.0041326475
193	0xbd63db7f	-0.05562925
194	0xbd12a0b9	-0.03579781
195	0x3c9f3b95	0.01943759
196	0xbd7abcea	-0.06121532
197	0xbb169af8	-0.0022980552
198	0x38f7985e	0.000118062584
199	0x3d3bea49	0.04587773
200	0x3d16a2fd	0.03677653
201	0xbd266f52	-0.040633507
202	0xbcff6f22	-0.031180922
203	0xbc88d993	-0.01670531
204	0xbd6c0066	-0.057617567
205	0x3d4eb241	0.050462965
206	0xbd39c8b5	-0.045357425
207	0xbd043cb4	-0.032284454
208	0xbd804c89	-0.06264598
209	0x3be3561b	0.006937755
210	0xbcd70865	-0.02624912
211	0x3c01663c	0.00789791
212	0x3c59ce09	0.0132937515
213	0x3c972fba	0.018455375
214	0x3d243497	0.040089216
215	0xbc862a01	-0.01637745
216	0xbc1e7432	-0.009671258
217	0xbc8ff4ea	-0.017572839
218	0x385fb0d0	5.3332013e-05
219	0xbd5bbe53	-0.053648304
220	0x3c29dca5	0.010367547
221	0x3a84cadb	0.0010131256
222	0xbd388548	-0.045048982
223	0x3b0f993f	0.002191141
224	0x3c92e681	0.017932178
225	0x3cc1af42	0.02364314
226	0xbce01bbc	-0.027356975
227	0xbd421dc6	-0.047391675
228	0xbd7584b0	-0.059940994
229	0xbb3ba225	-0.0028630581
230	0x3d46896b	0.048470896
231	0xbd38ee1d	-0.045148958
232	0x3cc3a2de	0.023881372
233	0xbc8baa2f	-0.017048923
234	0xbb9627d9	-0.004582387
235	0xbaa013dd	-0.0012212951
236	0xbaa5b18f	-0.0012641418
237	0xbcd854aa	-0.026407558
238	0xbd1d3625	-0.038381714
239	0x3c20e0c8	0.009819217
240	0x3d14cd0e	0.036328368
241	0xbd8301cf	-0.06396829
242	0x3ca83bd7	0.020536346
243	0xbd84f76d	-0.06492505
244	0xbd0a1f8e	-0.0337215
245	0x3d5c9680	0.053854465
246	0xbd8111db	-0.06302234
247	0xbd93cd13	-0.07216849
248	0xbccfceca	-0.02536716
249	0xbc31003a	-0.010803277
250	0xbc0064ed	-0.007836563
251	0xbcb21268	-0.021737292
252	0xbcc2cbad	-0.02377876
253	0xbd2551e2	-0.040361293
254	0xbd8868f6	-0.06660645
255	0x3c61a866	0.0137730595

fc3.bias f4 [128]
0	0xbd91632e	-0.07098995
1	0x3cc4a3cb	0.024003884
2	0xbcfc3ad6	-0.030789774
3	0x3d8e8eab	0.069608055
4	0xbcd436d8	-0.025905058
5	0x3db9dcc9	0.090753146
6	0xbd0f9202	-0.035051353
7	0x3c91e775	0.017810563
8	0x3d227f80	0.039672375
9	0x3d994cd0	0.07485354
10	0xbc341d47	-0.010993308
11	0xbd22da5d	-0.03975903
12	0x3d9f556e	0.07779966
13	0x3d898b68	0.06716043
14	0xbbef46e4	-0.007302152
15	0xbcb26231	-0.021775337
16	0x3d5ac1f3	0.05340762
17	0x3dad3d34	0.08458939
18	0x3cc1d927	0.023663117
19	0xbcde50b4	-0.027138092
20	0xbd8bad52	-0.068201676
21	0x3d80b0cd	0.06283722
22	0xba87c335	-0.0010357859
23	0x3cf771c6	0.030205619
24	0xbb3c4c61	-0.0028732049
25	0x3b9d6414	0.00480319
26	0x3d6ec598	0.05829391
27	0x3da52b25	0.0806487
28	0x3cadae38	0.021201238
29	0xbc88f878	-0.016720042
30	0x3d18d3e8	0.037311465
31	0x3cd047d3	0.025424873
32	0x3d177ef6	0.036986314
33	0x3d881afc	0.06645772
34	0x3c78cc5a	0.01518544
35	0xba668296	-0.00087932625
36	0x3d4b28c1	0.049599413
37	0x3cad3aee	0.021146264
38	0x3d992c14	0.0747911
39	0x3be63c73	0.007026249
40	0x3d9803b0	0.07422578
41	0x3d565e71	0.05233616
42	0xbd3e1e1b	-0.04641543
43	0x3d5b6be3	0.053569686
44	0xbd6b11a0	-0.057389855
45	0xbcc2358b	-0.023707172
46	0xbd2f309b	-0.042770963
47	0xbae32a8b	-0.0017331404
48	0x3d46f90a	0.048577346
49	0x3d62f3c5	0.055408258
50	0xbb5cb5be	-0.0033677663
51	0xbcfb3e9c	-0.030669503
52	0x3d594d35	0.053052146
53	0x3d08a7b0	0.033363044
54	0xbd1bbc58	-0.038021415
55	0xbab67d35	-0.0013922813
56	0x3b632eee	0.0034665423
57	0x3c1ae220	0.009453326
58	0x3cde22ad	0.027116144
59	0x3d93356c	0.07187924
60	0x3d7e71fa	0.062120415
61	0x3da23fb7	0.07922309
62	0x3d7bad1d	0.06144439
63	0xbd9442e2	-0.072393194
64	0xbca414f1	-0.020029517
65	0x3bbf9b03	0.0058473363
66	0x3bbaa501	0.0056959395
67	0xbcbdbe4f	-0.023162035
68	0x3d8c2bd8	0.068443
69	0x3db37e8a	0.0876437
70	0x3c61d74d	0.013784242
71	0xbd2727f4	-0.040809587
72	0xbba27867	-0.0049582007
73	0x3d90b098	0.070649326
74	0x3a42f6bc	0.0007437279
75	0x3d363a1f	0.044489022
76	0x3dd7f039	0.10543866
77	0xbd0662af	-0.032808956
78	0xbc524273	-0.012833226
79	0x3d0eca8f	0.034861144
80	0xbd96274d	-0.07331715
81	0xbac7456e	-0.0015203187
82	0xbd354bac	-0.04426162
83	0xbcb95cf5	-0.022627333
84	0x3d107296	0.035265528
85	0x3d6aaf6e	0.05729621
86	0x3d1278b1	0.03575963
87	0xbd8c9611	-0.068645604
88	0x3bfaac30	0.007649921
89	0xba88f917	-0.0010450211
90	0x3d25760c	0.04039578
91	0x3cd8650f	0.026415376
92	0xbba67a3e	-0.0050804904
93	0xb9635ecc	-0.00021683722
94	0xbca5e40e	-0.020250347
95	0x3c5adf50	0.013358906
96	0x3d9ba3d8	0.0759961
97	0xbd2e3434	-0.042530254
98	0x3d16969e	0.036764733
99	0x3dabdf2f	0.08392178
100	0xbae8a232	-0.0017748533
101	0x3cdfbf96	0.027313035
102	0x3c4167aa	0.011804501
103	0x3ceb8ce7	0.02875371
104	0xbb879867	-0.004138041
105	0x3d4cb084	0.049973026
106	0xbd11b791	-0.035575453
107	0xbce73599	-0.0282238
108	0x3d415e15	0.047208864
109	0x3dba5072	0.09097375
110	0xbb5edea7	-0.0034007223
111	0x3cde801c	0.027160697
112	0x3db4516e	0.08804594
113	0x3d349b6c	0.044093534
114	0x3d1b8e17	0.037977304
115	0xbbd087e2	-0.0063638547
116	0x3d399724	0.045310155
117	0xbcc86168	-0.02446051
118	0xbcdc7310	-0.026910335
119	0xbcff4fd0	-0.031165987
120	0xbd3902ee	-0.04516881
121	0x3cba00ef	0.022705523
122	0x3d6a9b85	0.05727722
123	0x3ba39d39	0.0049931076
124	0x3c57562d	0.0131431045
125	0x3d41bb7e	0.047297947
126	0xbd1f1125	-0.03883471
127	0x3d162c9f	0.036663648

fc4.weight f4 [64, 128]
0	0x3d9d8812	0.07691969
1	0xbd820cf2	-0.06350125
2	0xbd3febc6	-0.04685571
3	0xbc0efe8c	-0.008727681
4	0xbd1954b3	-0.03743429
5	0x3d493320	0.049121022
6	0x3d2894bd	0.041157473
7	0x3d8eed41	0.06978846
8	0x3d09e5c7	0.0336664
9	0x3d7efc69	0.062252436
10	0x3b99ff55	0.0046996274
11	0xbd270873	-0.040779542
12	0xbd52e87e	-0.051491253
13	0x3c82d15c	0.015968971
14	0xbcc61c03	-0.024183279
15	0x3ca76dad	0.02043804
16	0xbb9b6b66	-0.0047430275
17	0xbdc0a772	-0.09406938
18	0x3d91e384	0.07123473
19	0xbdc492aa	-0.095982864
20	0x3cb8d941	0.022564532
21	0x3d6481a2	0.05578769
22	0xbac4a135	-0.0015001657
23	0x3c0e55d6	0.008687457
24	0x3d87324f	0.066013925
25	0x3d6ab562	0.057301886
26	0xbca5eadd	-0.020253593
27	0xbdc046e5	-0.09388522
28	0xbce760c7	-0.02824439
29	0xbd99502a	-0.07485993
30	0xbdb49f0b	-0.088193975
31	0xbdacd47d	-0.084389664
32	0x3d0fe7b9	0.035133097
33	0xbd7a7b61	-0.06115282
34	0xbc5b5072	-0.013385879
35	0xbdac673b	-0.08418127
36	0xbd941b2b	-0.072317444
37	0x3c04d265	0.008106803
38	0xbd2ad62a	-0.04170815
39	0xbcd70fd9	-0.026252674
40	0xbd1818b2	-0.037132926
41	0x3d922c19	0.07137317
42	0xbca7a0cd	-0.020462418
43	0x3db50edd	0.088407256
44	0xbd964028	-0.073364556
45	0x3d917256	0.07101886
46	0xbd839af2	-0.06426038
47	0xbd8a01df	-0.06738638
48	0xbdaa8ae7	-0.08327275
49	0xbccd79b8	-0.025082454
50	0x3d2a86ec	0.041632578
51	0xbd4323ed	-0.047641683
52	0x3c119ae6	0.008887028
53	0xbd775145	-0.06038024
54	0x3d26e284	0.040743366
55	0x3d78e3cf	0.06076413
56	0x3da43530	0.08017957
57	0xbda30375	-0.07959644
58	0xbda709dd	-0.08156178
59	0x3dabf841	0.0839696
60	0x3d66e6e6	0.056372546
61	0xbc521988	-0.01282347
62	0x3d91b53e	0.07114647
63	0x3cc3ddfa	0.023909558
64	0x3d5ffa68	0.054682165
65	0xbcdaf313	-0.026727235
66	0xb8432385	-4.6524703e-05
67	0x3d654bf6	0.055980645
68	0x3cfd980b	0.030956289
69	0x3b2b6837	0.0026154646
70	0xbdbbad80	-0.09163952
71	0xbd925ffe	-0.07147215
72	0xbd37b1d2	-0.044847317
73	0x3da71c70	0.08159721
74	0xbc13dcf3	-0.009024846
75	0x3cdf84d7	0.027285023
76	0xbd7f39d1	-0.062310997
77	0x3c1042e7	0.008805013
78	0xbc90b41c	-0.017664008
79	0x3cdabf73	0.026702618
80	0x3bde4f2c	0.0067843404
81	0xbd436012	-0.04769904
82	0xbda4aa36	-0.08040278
83	0x3dc8543f	0.09781694
84	0xbd10d3ca	-0.035358228
85	0x3b6fac86	0.0036571338
86	0x3ca80a34	0.020512678
87	0x3d081d9e	0.03323137
88	0x3d70e2a9	0.05880991
89	0xbd85b4d2	-0.06528629
90	0x3d10f937	0.03539392
91	0xbc9bfbee	-0.019041028
92	0x3c78f4d6	0.015195092
93	0x3c31c055	0.010849078
94	0x3d0cf299	0.034411047
95	0x3d83fbb2	0.064444914
96	0x3d7b4fcd	0.0613554
97	0x3c2d73e4	0.0105867125
98	0xbd3f1587	-0.04665139
99	0x3c97d2e4	0.018533178
100	0x3d287d5f	0.04113519
101	0x3d20b952	0.039239235
102	0xbdad7267	-0.08469086
103	0xbcc467c3	-0.023975259
104	0x3cfcfe2a	0.030882914
105	0x3cc578dc	0.024105482
106	0x3c97404c	0.018463276
107	0x3d7c008a	0.06152395
108	0xbd610bd6	-0.05494293
109	0xbdb9baab	-0.09068807
110	0xbd684675	-0.056707818
111	0xbd075fce	-0.03305035
112	0xbdafbcf7	-0.08580964
113	0xbd96130b	-0.07327851
114	0xbd64ee0c	-0.05589108
115	0xbd77a054	-0.060455635
116	0xbd8765aa	-0.06611188
117	0x3d05fa24	0.032709256
118	0xbdae41f2	-0.08508672
119	0x3d72e5a1	0.059301022
120	0xbd645afd	-0.055750836
121	0xbd74826b	-0.05969469
122	0x3d7d487a	0.061836697
123	0xbd8ec7a3	-0.069716714
124	0xbc8942b1	-0.016755434
125	0xbd8ae54e	-0.06782018
126	0x3cf2a0c5	0.029617677
127	0xbc1d0ffb	-0.00958633
128	0xbd397513	-0.045277666
129	0x3d01e70f	0.031714495
130	0xbbe7f6a8	-0.0070789643
131	0xbcd91225	-0.02649791
132	0xbdb484ed	-0.08814416
133	0xbd691106	-0.056901
134	0xbcdf769c	-0.027278237
135	0xbda637b0	-0.0811609
136	0x3b1e6bc3	0.0024173118
137	0xbcad102e	-0.02112588
138	0x3d013ce0	0.031552196
139	0xbd443a2e	-0.047907047
140	0xbc6cfd2a	-0.014464656
141	0xbc0a23f9	-0.008431428
142	0xbdb7812e	-0.08960186
143	0x3d091594	0.033467844
144	0xbd8b6efb	-0.06808277
145	0xbd8dcb9c	-0.06923601
146	0xbd55e015	-0.052215654
147	0xbd9d4310	-0.07678807
148	0xbc5fd274	-0.013661016
149	0xbcf6192a	-0.030041296
150	0x3d5464c5	0.051853914
151	0xbdbe10e7	-0.092805676
152	0xbc116c9a	-0.00887599
153	0x3b5c3e37	0.003360642
154	0x3c0e9be5	0.00870416
155	0x3bf50de8	0.0074784644
156	0xbc1a928e	-0.009434355
157	0xbd22adcb	-0.039716523
158	0xbc9a1b43	-0.018811828
159	0x3d736d2c	0.059430286
160	0x3d46ba03	0.04851724
161	0x3d609c7e	0.054836743
162	0xbd94ea13	-0.072712086
163	0xbcf35a32	-0.029706094
164	0xbceccea1	-0.028907122
165	0xbd4e7b1c	-0.050410375
166	0x3d8876bf	0.06663274
167	0x3d4a7442	0.04942728
168	0x3c38a9ff	0.011270999
169	0xbda28570	-0.079356074
170	0xbc648a81	-0.0139490375
171	0x3b61250d	0.003435436
172	0x3c4a78f0	0.012357935
173	0xbaa72449	-0.0012751903
174	0x3d65ac79	0.056072686
175	0x3c5a11fb	0.013309951
176	0xbd8281be	-0.063724026
177	0xbd633290	-0.055468142
178	0x3aa7f613	0.0012814425
179	0x3cd924b4	0.02650676
180	0xbda29cc8	-0.0794006
181	0xbd93a322	-0.072088495
182	0xbcf02186	-0.02931286
183	0xbcb7afb9	-0.022422658
184	0x3cbd280d	0.023090387
185	0xbda3b077	-0.079926424
186	0x3cb95787	0.022624744
187	0x3d478582	0.048711307
188	0xbd0367bb	-0.032081347
189	0x3ca053d0	0.019571215
190	0xbcb9e169	-0.022690492
191	0xbd346e87	-0.04405072
192	0x3d76b6b0	0.060232818
193	0xbd50a557	-0.05093893
194	0x3d815d6c	0.06316647
195	0x3d57834b	0.052615445
196	0xbcb21004	-0.021736152
197	0x3c75f050	0.015010908
198	0x3cd46322	0.025926176
199	0x3c07b499	0.008282804
200	0xbdb643d4	-0.08899656
201	0xbd18fb8f	-0.03734928
202	0xbd238f58	-0.039931625
203	0x3ccd0703	0.025027758
204	0xbd92564d	-0.07145367
205	0x3d2cf032	0.042221256
206	0x3d492939	0.04911158
207	0x3d6f73d4	0.05846007
208	0xbbdebd1a	-0.006797445
209	0xbcc26b1c	-0.023732714
210	0xbd152764	-0.03641452
211	0xbcb1fae0	-0.021726072
212	0x3d5223d8	0.051303715
213	0x3d12b5f8	0.03581807
214	0xbd6f74f1	-0.058461133
215	0xbcff4a5e	-0.03116339
216	0xbdb104aa	-0.08643468
217	0x3d92c97c	0.07167336
218	0xbc742eca	-0.0149037335
219	0xbc1e29ef	-0.009653552
220	0xbd07ac58	-0.033123344
221	0xbdb25f97	-0.087096386
222	0x3cdbd1e7	0.026833488
223	0xbda6a5c7	-0.08137088
224	0x3c6afbc6	0.014342254
225	0x3d8cd081	0.068757065
226	0xbd7f5585	-0.062337417
227	0x3be54f79	0.0069979993
228	0xbd75dd23	-0.060025346
229	0xbd2b2f3d	-0.041793097
230	0x3d9cd6f1	0.07658184
231	0xbd887cf6	-0.066644594
232	0xbccf3fec	-0.025299035
233	0xbd8bba05	-0.0682259
234	0x3c9fb762	0.019496623
235	0xbc4a715d	-0.0123561295
236	0xbc8bbd10	-0.017057925
237	0xbdadd5f0	-0.08488071
238	0x3acf613d	0.0015821826
239	0xbd3977af	-0.045280155
240	0xbdb4ecf0	-0.08834255
241	0xbd6d7098	-0.057968706
242	0xbda9a3ec	-0.08283219
243	0xbdc53792	-0.0962974
244	0x3d98767a	0.074444726
245	0x3d805357	0.06265896
246	0xbcec857b	-0.028872242
247	0xbc0b3d7e	-0.008498548
248	0x3c86da0e	0.016461398
249	0xbd1bbebd	-0.0380237
250	0xbd12741d	-0.035755266
251	0x3d033923	0.03203691
252	0x3da12fcd	0.078704454
253	0xbd0b25ca	-0.033971585
254	0x3d34c397	0.04413184
255	0x3d3fe3bd	0.046848048

fc4.bias f4 [64]
0	0xbc8b94e9	-0.01703878
1	0x3d5ababf	0.05340075
2	0xbc9328b3	-0.017963743
3	0x3dbd8ef8	0.09255785
4	0xbdc768f5	-0.09736816
5	0x3bb4e5c4	0.0055205543
6	0x3dc10999	0.09425659
7	0x3dfee8e2	0.124467626
8	0xbd71b4e7	-0.059010413
9	0xbd723937	-0.059136596
10	0x3d7c9cb4	0.06167288
11	0xbd4255a0	-0.04744494
12	0xbda89606	-0.0823174
13	0x3e18f00c	0.1493532
14	0x3cb45b51	0.0220162
15	0x3da5caca	0.080953196
16	0xbcdacfc3	-0.026710397
17	0x3d4f89f0	0.050668657
18	0xbd5e72f1	-0.054308835
19	0xbce85db4	-0.028364994
20	0x3d8bd9a9	0.06828625
21	0x3cd8f61a	0.026484538
22	0x3dd055f7	0.101726465
23	0xbd1cbcd9	-0.038266037
24	0xbaa803e7	-0.0012818546
25	0xbd6b5585	-0.057454605
26	0x3cd8bbb8	0.026456699
27	0x3d946736	0.072462484
28	0xbcca2cb1	-0.024679514
29	0xbd97a779	-0.0740499
30	0xbcaf7b3a	-0.021421064
31	0x3d347952	0.044061013
32	0x3d6a8cfb	0.057263356
33	0x3d8d8bd2	0.06911434
34	0x3d54e2fd	0.051974285
35	0x3c835ada	0.016034532
36	0x3d054fd5	0.032546837
37	0x3dd55714	0.104169995
38	0x3d91b397	0.07114332
39	0x3e20aa62	0.15689996
40	0x3d902c52	0.070397034
41	0x3d2a6751	0.041602436
42	0x3dac65ae	0.08417831
43	0xbd1f2a4e	-0.038858704
44	0x3bcde574	0.0062834565
45	0xbd93624c	-0.07196483
46	0xbdbbd45d	-0.091713645
47	0x3df491a2	0.1194184
48	0x3dbd1b06	0.0923367
49	0xbd5ebcfa	-0.05437944
50	0x3e2945b6	0.16530499
51	0xbc98240f	-0.018571882
52	0xbd023b03	-0.03179456
53	0xbccacc2e	-0.024755564
54	0x3c5ef1c1	0.013607443
55	0xbcc214a3	-0.023691481
56	0x3c606830	0.013696715
57	0x3da0bd09	0.078485556
58	0x3dbca213	0.09210601
59	0x3da70bd1	0.08156551
60	0x3d630c7f	0.05543184
61	0xbc8642d7	-0.016389294
62	0x3de057d5	0.10954253
63	0xbc62b10d	-0.0138361575
