models/accelerate_GradAccumulation_model_4/trained_models/tinyvgg_model.pth (torch, 782220 bytes, 10 tensors)

features.0.weight f4 [64, 3, 3, 3]
00000000: 9b33 1a3e 6574 a2bd 4c1e a2bd 8055 193e
00000010: 4b43 3b3c efae 85bd f35d 253e 091e b53d
00000020: 7e7e 073e 6550 37be 74ab e4bc 33b1 c4bc
00000030: 3c23 dabd 631e 6e3d 446d 4cbe 78fa 6bbd
00000040: 2e8d 893d 5c12 a43c 1c0f eebc 9d0e 073d
00000050: e2e1 83bd 9ba9 b7bd 3ea2 fa3c b313 203e
00000060: 7c4b d3bc 2dec 88bd 270e ebbb 098d e6bd
00000070: 1307 793d 5c7d 03bd 1c9a 013e c064 22be
00000080: 3a0e d7bd 66f2 f13d e4e8 a5bc 3539 0f3e
00000090: 4a81 a6bd b58f 08be 28f5 8b3d 1a81 1a3e
000000a0: d30a 7c3d db63 c13d 63b2 81bd d939 f63d
000000b0: 4c81 1c3e 9083 913d fdb8 533d 5dca 3c3e
000000c0: 6a2f 3bbe 81ad 16be 4059 cf3c cbdf 4abb
000000d0: 0f9d 40be 9f78 23be 3b15 c2bd f4ce 9f3a
000000e0: 7ad4 33be fa2a adbd fda6 6a3d 0d3e 1b3e
000000f0: 3e18 25be a61d 41bd 8fed 14bd c04d 90bd
00000100: 04a2 363d a5ce be3d 36f2 1ebe 90db 9e3d
00000110: 7a73 22be 7e8e dc3c 23b5 f2bd ed91 1bbe
00000120: 15c8 333e f29b 2c3d e739 31be 2dbd 963d
00000130: ba67 e13c 5cde eabd d5a1 903d 107e 133d
00000140: dce4 0a3e fb54 da3d 1840 b93d 65f6 3d3d
00000150: 43fc 01bd 9745 173e e0a1 473c 24d6 41be
00000160: 4530 c1bc da51 a03d 4cc5 1a3e 5f57 8d3b
00000170: 3dca 833d b50e 343e e4e1 393e 6d91 043c
00000180: d80b 34be 3fdc 083e 6ebf e2bd 2974 5b3d
00000190: 6680 aebd 2d3b 31be 362c 3abe 20b7 b63d
000001a0: bacc f839 bd7e c1bc 0fa0 af3d a3fc 183e
000001b0: a717 b13c 3b8e 9dbc 3640 203e c62a ff3d
000001c0: e578 17be 5b8b f93d 0f4c 6abc 9a08 0e3e
000001d0: ed95 213d 996a 3fbe 55be eebd b439 07be
000001e0: 44dd 163d f3df ffbc 5ba7 0f3e 5e24 7bbd
000001f0: cb10 03bc 49f0 023e 35e2 903d aca6 393e
00000200: 9130 0cbe 49f6 35bd 19f8 a43b b49a 2e3e
00000210: 8fd0 ffbd 1b32 0cbe 7e6c dbbd 6044 4c3d
00000220: 12f9 43be c69b 24be e4ec 60bd 08ae 203d
00000230: 5afd 0d3e cfe1 273e f89c 3b3e bec5 01be
00000240: 21f3 6f3c d908 dabc 3dc7 25be 604e a13d
00000250: af6c 51bd b165 31bc 3079 eb3d 9841 433e
00000260: 9ebc b8bd 1106 3c3e f224 01be b8f0 29be
00000270: adb0 abbd ba8d 383d fd37 fe3d 3588 e83b
00000280: 69d4 b7bd e35c 3f3d cb61 c3bd 0373 363e
00000290: d0d6 5dbd 337e c5bd 3399 13be a98c 3c3e
000002a0: e0f9 ee3c bdb3 ee3d b9f9 cbbd f033 1fbe
000002b0: 7ff1 79bd b16a bebc 006f 143e 89f0 fbbd
000002c0: a87a 2a3e db1e 4ebd 2483 3e3d 08c9 ea3d
000002d0: 0c16 893d 4a1e 49bd cd7f f43c 45c1 e33d
000002e0: 6514 bfbd ffa8 cf3c 3bb4 fbbd 3dac 753c
000002f0: 15e5 92bc 5280 b2bd fcad fabb f9d7 903c
00000300: a2a0 383e 06d4 183d 6626 cb3d 0a3c 1a3e
00000310: d3b3 043e fcd1 3c3e 4fe8 0cbd 6d17 0b3e
00000320: 853a bd3d f508 b63c d305 303c bb48 9d3d
00000330: cc43 3a3e 17c3 1f3e 392c 483d 2d99 3cbe
00000340: fc5d 4dbe 81c3 c5bd db8f dabd c359 bd3d
00000350: 864c 29bd 9a04 c0bc df24 083c 44c0 73bd
00000360: 92c8 373e aacb 263e d2ba 21bd c553 3c3d
00000370: 22e7 093e 5024 903d cc15 463e a880 ddbd
00000380: 3c91 35be 40e6 8e3d 197c a33d 0325 373e
00000390: fa26 c8bd 8372 35be f9c4 ce3d 56d9 0cbe
000003a0: c028 5dbb 46e6 3dbe 30bb 13be 7943 0fbe
000003b0: 8fc7 a7bd 4e8f f2bd 2c33 3a3e b819 9a3d
000003c0: 51c8 963d 685d e1bd 76f3 723d 7d78 64bb
000003d0: 98d5 fabd bf15 1abe d7da debd f703 87bd
000003e0: 99be 393e dc3c d63c b6a2 3ebe 13d2 51bd
000003f0: f242 72bc fc5c 36be 13d9 26be 8ccf 0fbe
0.15058748 -0.07932357 -0.07915935 0.14974022 0.011429618 -0.065275066 0.1614912 0.088436194
0.13231847 -0.17901762 -0.027913786 -0.024010276 -0.10651252 0.058134448 -0.19963557 -0.057611912
0.06716381 0.020028286 -0.02905994 0.03297292 -0.06439568 -0.089678966 0.030594941 0.15632515
-0.02579283 -0.06685672 -0.007173318 -0.11257369 0.060797762 -0.032101974 0.12656444 -0.15858746
-0.105007604 0.11813812 -0.020252652 0.13986667 -0.08130129 -0.1333607 0.06833869 0.15088311
0.06153376 0.09442874 -0.06332853 0.12022752 0.15283698 0.07105172 0.05169009 0.1843657
-0.18279806 -0.14714624 0.025311112 -0.0030956145 -0.18809913 -0.15963982 -0.09476706 0.0012192414
-0.17561522 -0.08455463 0.05728816 0.15160389 -0.16122529 -0.047147416 -0.036359366 -0.0704608
0.044588104 0.09316758 -0.15522084 0.07756722 -0.15864363 0.026923414 -0.11850955 -0.15192385
0.17556794 0.04214091 -0.17307244 0.07360301 0.027515281 -0.11468193 0.07062117 0.036008894
0.13563865 0.1066074 0.09045428 0.04637756 -0.031734716 0.1477264 0.01218459 -0.18929344
-0.023582587 0.07828112 0.15114325 0.004313394 0.06435058 0.17583735 0.18152577 0.008091313
-0.17582643 0.13365267 -0.110716686 0.053577576 -0.08520584 -0.1730773 -0.18180928 0.08921647
0.0004745478 -0.023620004 0.08575451 0.14940123 0.021617724 -0.01923286 0.15649495 0.1245933
-0.14792211 0.12184783 -0.01430036 0.13870469 0.03944962 -0.18693008 -0.11657397 -0.13205606
0.03683211 -0.031234717 0.14028685 -0.06131398 -0.007999609 0.12786974 0.070743956 0.18129987
-0.13690402 -0.04442433 0.0050344584 0.17051202 -0.12490951 -0.13690989 -0.107140526 0.049869895
-0.19137982 -0.16075048 -0.054913417 0.03922847 0.13866177 0.16394733 0.18321598 -0.12673089
0.014645369 -0.026615547 -0.16189285 0.07876277 -0.05112904 -0.010827468 0.11497724 0.19067991
-0.09020351 0.18361689 -0.1261175 -0.16595733 -0.083833076 0.045057036 0.12413023 0.0070963153
-0.08976061 0.046719443 -0.09540137 0.17817311 -0.05415994 -0.09643211 -0.1441391 0.18413033
0.029171884 0.11655376 -0.0995974 -0.15547156 -0.061021324 -0.023244234 0.14495468 -0.12301738
0.16648352 -0.050322395 0.046511784 0.11464125 0.06693658 -0.04910115 0.029846096 0.111208476
-0.09330062 0.025349138 -0.122902356 0.014994678 -0.0179315 -0.087158814 -0.007650135 0.017681109
0.18030027 0.037311576 0.09919433 0.15061966 0.12959222 0.18439478 -0.034401234 0.13583155
0.09239677 0.022221068 0.010743576 0.07679888 0.18189925 0.15601765 0.0488703 -0.18417807
-0.20055383 -0.0965643 -0.106719695 0.09245636 -0.041332744 -0.023439694 0.008309572 -0.05950953
0.17947605 0.16288629 -0.039484806 0.045978326 0.13467076 0.07038176 0.19344252 -0.10815555
-0.17731184 0.069775105 0.07982654 0.17885213 -0.09773059 -0.17719464 0.10096163 -0.13754782
-0.0033746213 -0.18544874 -0.14426875 -0.13990583 -0.0819236 -0.118437394 0.18183583 0.07524437
0.07362426 -0.11004144 0.059314214 -0.0034861856 -0.12247771 -0.15047358 -0.10881584 -0.06592553
0.18139113 0.026152067 -0.18616757 -0.051225733 -0.014786469 -0.17808908 -0.16293745 -0.14044017

features.0.bias f4 [64]
00000000: 1388 ed3c c55d 1e3e 743b c7bd b3e7 48be
00000010: 5b5a 363e 759b 1bbd 20ab 7dbd 7a73 0ebe
00000020: ede8 c4bd f7ed 36be 497d 2cbd d782 0ebd
00000030: 50dc 11be eee8 7d3d 1d7a dfbd f3a9 23be
00000040: a776 b6bb 6995 27be a3c3 143e 9638 a43d
00000050: 4dbc 30be 1f90 b5bd 50a0 e53a 09c5 9dbd
00000060: 1d36 f2bd 2ad3 a2bc 66ac dd3d 5669 a2bd
00000070: 0a9b d13d 7df8 d03d 986a 1b3e 3d32 c13d
00000080: 1314 0ebe 1a39 1dbe 5300 3b3e f33e a4bd
00000090: b8e4 babc e9e4 babd d758 a43d 258a 02be
000000a0: 47cf 413c 46b6 6abd 1a95 a23c eb42 d0bd
000000b0: d695 19be 99fe ffbd f454 d53d ea04 68bd
000000c0: bfb5 10be 0861 0bbc d3bf 32bd e525 573c
000000d0: 58e6 4ebc 36cb debd ed54 9c3c 39bf 1c3e
000000e0: 0724 21be f928 02be 2a59 bfbd 4194 cbbd
000000f0: eade 0abc 6c67 fc3d 4f87 bcbd 5ab6 a53d
0.02899555 0.15465458 -0.09728137 -0.19619636 0.17807905 -0.037990052 -0.061930776 -0.13911238
-0.096147396 -0.17864214 -0.04211167 -0.034792747 -0.14244199 0.061989717 -0.10911963 -0.15982799
-0.0055683437 -0.16365589 0.14527754 0.080186054 -0.17259331 -0.088653795 0.001751909 -0.07703597
-0.118267275 -0.019876081 0.10823898 -0.079302475 0.102346495 0.102036454 0.15177381 0.0943341
-0.13874845 -0.15353814 0.18261842 -0.08019819 -0.02281414 -0.091256924 0.08024757 -0.1274801
0.011829204 -0.057302736 0.019846488 -0.101690136 -0.14998564 -0.124997325 0.10416594 -0.05664531
-0.1413183 -0.008507021 -0.04363997 0.013131593 -0.01262816 -0.10878603 0.019083465 0.1530732
-0.157364 -0.12710942 -0.093431786 -0.099403866 -0.008475998 0.12324414 -0.092054956 0.080914214

features.2.weight f4 [64, 64, 3, 3]
00000000: 7c1e 983b 1409 83bb 78ab f1bc 3337 22bc
00000010: 39b0 44bb cbcc 8ebb 3bc4 38bc ac72 fc3c
00000020: 0f29 b73c 624a d43c 3d9c 3cbd db5d aeba
00000030: 8fff 11bd 21d4 1fbd ceda 1ebd 384e 42bd
00000040: 4f27 25bd f5f5 4fbd 6b28 563c 8ac8 f83c
00000050: 5c1e fcbc 5adc 2f3b 8bd4 d83b 63dd 23bd
00000060: 1864 44bc 2668 2dbc 801a 10bd 221a 3cbb
00000070: 2edf a53c 0b5c cd3c 63c0 28bd 9059 dcbc
00000080: 9033 3bbd 7891 df3c c0d4 7f3c c5a4 61bc
00000090: 7905 b4ba 2884 963c be54 12bd eab8 0a3d
000000a0: 45ea 06bd 90fb 233d 6842 16bd e846 753c
000000b0: 61f1 2a3c dd84 09bd 2163 91bc d78b 8dbc
000000c0: b5f1 ec39 d40d 863b 78e5 8abc d0c3 e4bb
000000d0: f165 41bc 4ee1 68bc d8e3 cf3c 4ddb 53bc
000000e0: 4cf2 9a3c 7471 5b3c d8cd 2dbb 1ebf 27bd
000000f0: dd16 e2ba 1311 fd3c 3e21 dfbc b540 34bd
00000100: 6d33 efbc 6eaf c73c b9f7 57bd 5bf8 0a3c
00000110: 9992 843c 1c11 ccbc cea4 de3c 1c41 54bc
00000120: 7401 183d e2d5 4b3d 09ed 7fbc b3be 3e3c
00000130: bebe 243d 8f93 bf3c c637 9abc af6b aa3c
00000140: d804 353c fa41 fbbb 4e01 f53b 415c 3e3c
00000150: 783c 3dbd d2a7 35bd 35f1 fa3c cf43 6cbc
00000160: 7c85 eabc 5d0e 0c3c 744f 9b3c 23f5 55bc
00000170: cc01 a8bc ecb2 0fbc f9a4 d2ba 7211 b23a
00000180: ac1a 153c c574 de3c fe68 2f3d 5c94 e8bc
00000190: 0237 e2bc a624 f1bc fc10 a8bb eb5f f7bc
000001a0: d2d0 34bd ce51 21bd 48fa 6c3c 5433 ec3c
000001b0: 3877 1abd bca3 c73b eecb ccbc e4ee 2dbd
000001c0: 8b03 81bc eebb 52bd 1094 f43c 8fb9 28bd
000001d0: 3941 14bd fdae ca3a ffcb 48bd 79cf e7bc
000001e0: e8ec 3bbd f617 09bd 1dbe 1abd c912 1fbd
000001f0: 150e 5fbd b92c f4bc dfac 273d 6a8a b9bc
00000200: e395 8c3c 3a56 3f3c bc50 cdbc 7124 3c3c
00000210: f116 61bb 0a93 a4bc 28c1 d7bc 11ec 2bbd
00000220: d69e 90ba 4087 ddbb 63ee 3cbd fb47 20bd
00000230: f51b 993c 6758 9fbc 6055 b73c 03b8 b1bc
00000240: 8cc3 60bb 8ef9 10bc ca68 813b 7cc6 03bc
00000250: 0df0 9bbc c17e f1bc e15b bbbb 07fa babc
00000260: 80a2 6cbc 32d4 b03c c69e f03c 0406 d3bc
00000270: abce c2bc d965 f23c 9dba a3bc d784 73bb
00000280: 2ac4 e4b9 0a6c a03c 842a d0bc 57b8 10bd
00000290: f467 843c 250d 82bc fbe7 143d 5900 c73c
000002a0: 172a c03c fcbc c03b 7c46 1d3d 4339 fc3c
000002b0: 737d 043c 72c1 b93c 632c ee3c 3a6f c03c
000002c0: 5aff de3c f208 15bd 3b48 a53b 868f 05bc
000002d0: 6e1f d6bc e9cd 1abc 0659 bcbb d8cb 4dbb
000002e0: 6c9b a2ba 3ad6 ad3c bbea 03bd 7ea8 703c
000002f0: b704 093b 5bbf cb3c 214d c8bc 39a2 ccba
00000300: 88db 0ebc dc46 25bc def8 12bd efe5 23bd
00000310: 6aa1 9d3c 5c36 06bd 8f6e 7bbb cfea 1fbc
00000320: 5fdf 703d fa4a c83c 6021 4a3d 51fe 103d
00000330: 962c 653d f55c 2c3d 390e ae3c f61f 1b3d
00000340: b899 663c dbd6 313d 64fa 5dba 765a afbc
00000350: 5830 ab3c 534c 7a3c c2c1 0c3b 3f79 dfbb
00000360: 0136 2dbd f351 11bd 11db 283c 3a35 f83c
00000370: 28c3 053d 19c7 41bd c66c 27bd 510c e73c
00000380: 64c6 62bc 1137 a3bc bb7d 4bbc 382a f73b
00000390: 24e6 adbc d5d0 b0ba 821c 5dbc cf57 583c
000003a0: 1c37 8c3c f8c9 a53c 951f a6bc f8bd cc3c
000003b0: c9f2 cdbc dc5d 593d 29fd 2c3d 5460 513d
000003c0: c9c8 cabc 5d55 883c c5e3 223d e9a1 1c3c
000003d0: b148 363c e6fc d4bc 746f 8dbc 5fd4 bbbc
000003e0: 87e1 373c 82b1 da3b 2206 cabc 219e 1f3d
000003f0: a0c6 2ebd 679d 2c3c e724 183c c4c6 babc
0.004642306 -0.003998885 -0.029500708 -0.009900856 -0.0030012263 -0.0043579093 -0.011277254 0.030816399
0.022358445 0.025914375 -0.046047438 -0.0013303118 -0.03564411 -0.03902066 -0.038782887 -0.047437876
-0.04032069 -0.050771672 0.01307116 0.030369062 -0.030776195 0.002683422 0.006617134 -0.040006053
-0.011986755 -0.010583913 -0.035181522 -0.00287021 0.020248022 0.025068304 -0.0411991 -0.026898175
-0.04570347 0.027291045 0.015614688 -0.013772194 -0.0013734541 0.018373564 -0.035725348 0.033867754
-0.03293826 0.04003483 -0.036684424 0.014970519 0.010433526 -0.033573974 -0.017747464 -0.017278595
0.00045193514 0.004091004 -0.016955122 -0.0069813505 -0.01180409 -0.014213873 0.025377199 -0.012930703
0.018914364 0.013393749 -0.0026520398 -0.040953748 -0.0017249245 0.03089193 -0.02723753 -0.044007022
-0.029199326 0.024375644 -0.05272648 0.008482064 0.016183184 -0.024910502 0.027178194 -0.012954976
0.03711076 0.04976452 -0.015620478 0.011642146 0.04022097 0.023385791 -0.018825423 0.0208033
0.011048518 -0.007667777 0.007476962 0.011618675 -0.046200246 -0.0443495 0.030632595 -0.014420464
-0.028628103 0.008548346 0.018958785 -0.013058933 -0.02050867 -0.008770686 -0.0016070894 0.0013585521
0.009100597 0.02715529 0.042824738 -0.028391056 -0.02761412 -0.02943642 -0.005128978 -0.030197104
-0.04414446 -0.039384656 0.014463969 0.028833069 -0.037711352 0.0060925167 -0.024999585 -0.042464152
-0.01574876 -0.051448755 0.029855758 -0.041192587 -0.036195014 0.0015463528 -0.04902267 -0.028297173
-0.04588023 -0.033470117 -0.037778962 -0.038836274 -0.05445679 -0.029806482 0.040936347 -0.022649009
0.017161315 0.011678273 -0.025062911 0.011483298 -0.003434595 -0.020089645 -0.026337221 -0.041973177
-0.0011033665 -0.006760508 -0.04612578 -0.039131146 0.018690089 -0.019451333 0.022379577 -0.021694189
-0.0034296243 -0.008848561 0.0039492594 -0.008042928 -0.019035364 -0.029479386 -0.00571774 -0.0228243
-0.01444304 0.021585558 0.029372584 -0.025759704 -0.023780188 0.02958958 -0.019986445 -0.0037158036
-0.00043633702 0.019582767 -0.025410898 -0.03533205 0.01616285 -0.015875408 0.036354046 0.024292158
0.02345757 0.0058819037 0.038397297 0.030789023 0.00808655 0.02267525 0.0290739 0.023490537
0.02722137 -0.036385484 0.005044011 -0.008151894 -0.026138034 -0.009448507 -0.005747917 -0.0031402018
-0.0012405938 0.021220315 -0.03220628 0.014688609 0.0020907351 0.024871519 -0.02445084 -0.0015612311
-0.0087193325 -0.010087695 -0.03588187 -0.040014204 0.019242007 -0.032766685 -0.0038365459 -0.009760573
0.058806773 0.024449814 0.049348235 0.035398785 0.055950724 0.04208084 0.021247016 0.037872277
0.014074735 0.043417793 -0.0008467792 -0.02140544 0.020897076 0.015276986 0.0021477793 -0.0068198736
-0.04228783 -0.035478543 0.010306136 0.030298818 0.03265682 -0.047309015 -0.04087522 0.028204115
-0.013841245 -0.019923719 -0.012420113 0.0075428747 -0.021227904 -0.0013489971 -0.013495566 0.013204529
0.017116122 0.020237908 -0.020278731 0.024992928 -0.025140183 0.053068027 0.04223362 0.051117256
-0.024753945 0.016642267 0.039768 0.009560087 0.011125729 -0.025999498 -0.017265059 -0.022928415
0.0112232035 0.0066739926 -0.024661127 0.038969163 -0.042669892 0.0105355745 0.009286142 -0.022799857

features.2.bias f4 [64]
00000000: f994 ad3c 7725 0b3d 36f2 f0bc e9c2 9e3c
00000010: 57c3 bebb ae10 063d fedf fe3c 4a3e 70bc
00000020: 3641 e1bc 875f 35bd 9c0b 013d b787 06bb
00000030: cbed 32bc a403 c9bc 9392 083d 0136 523c
00000040: f537 c1bc bd8c 0b3d 3092 25bd 85ab 583c
00000050: a993 be3a f7c9 443c 4ac4 2dbd ffbf f5bc
00000060: 8465 16bd ca67 07bd 3b7b b53b 13fc 0b3d
00000070: 75f1 623c b787 b73c 4241 223d 8a4a 173d
00000080: 364e a8bc 85d2 c8bc c8fa f8bc 381a f03c
00000090: 5c81 30bd 8787 e5bc 806b ec3c 4d36 2cbd
000000a0: 1504 f2bc b9b8 a6bb 61e8 b1bb 57f8 ebbc
000000b0: f02a 223d ba9d a2bc ffec ae3c 2c55 efbc
000000c0: aa50 d2bc 17d0 dcbc 94f3 063d 8e6c 22bd
000000d0: ecf4 fcbc 8bf5 273c 4da7 29bd 216d 1cbc
000000e0: e262 e43b 1078 e03c 413f 18bd e3eb 9b3c
000000f0: abf5 7e3c 98f1 0938 99d8 74bc 0314 35bc
0.0211892 0.033971276 -0.02941237 0.01938005 -0.005821626 0.03273075 0.031112667 -0.014663288
-0.027496915 -0.044280555 0.031505212 -0.002052767 -0.010920952 -0.024537869 0.03334291 0.012830258
-0.023586253 0.034069765 -0.04042262 0.013224487 0.0014539856 0.012011043 -0.042423524 -0.029998777
-0.036717907 -0.033057965 0.005538372 0.034175944 0.013851513 0.022403581 0.039613016 0.03693632
-0.020545106 -0.024514446 -0.03039302 0.029309377 -0.043092117 -0.028018726 0.028859854 -0.042043973
-0.029542962 -0.0050879386 -0.005429313 -0.028804941 0.03959173 -0.0198506 0.021353243 -0.029215418
-0.02567323 -0.026954694 0.032947138 -0.039654307 -0.030878507 0.010251413 -0.041419316 -0.009547503
0.0069697956 0.027401 -0.0371697 0.019033378 0.0155615015 3.2888347e-05 -0.014944219 -0.011052134

features.5.weight f4 [64, 64, 3, 3]
00000000: 0a0f 1abd d6b6 6fbb 88d3 8e3c d751 323c
00000010: 0f2a 56bc fa24 ff3c 6570 16bd 1c7c 643c
00000020: cb4f b4bc 922e 44bc 0a13 ba3c 9b3c e03b
00000030: 3f62 57bc b73b 3f3b 39b8 863c 56ee ac3c
00000040: 2e87 35bd 7ae4 f2bc 906f 01bc ade8 5e3c
00000050: b0dc 35bd 8ba4 fcbb cf04 0cbd 775a 47bb
00000060: 27c3 153c 975f 173b edfc 37bc a761 babc
00000070: ee94 88bc 3bcf debc f996 403c e004 6e3b
00000080: 31f9 c93c 33bf 0b3d b298 983c 8ab3 bd3c
00000090: 3c3e 9e3b 8c26 a13c 1af9 bd38 8855 2bbd
000000a0: de0f 7abc c6e6 de3c 61a4 a43c 67b0 b6bc
000000b0: 7326 1fbd c554 8fbc 008b 063d 684a d8bb
000000c0: 1e20 51bb fdf8 7e3c 2f5a 04bd e104 f3bc
000000d0: 95c6 8b3b 43b1 c5bc 27b1 a43c 6a70 d9bc
000000e0: e297 5d3c aabe e0bc 08b9 05bd d86d 8abc
000000f0: f81b 37bd 1b5e 0d3d 4127 fa3c 6abe afbc
00000100: f35e e33c 3ee4 803c 7f98 25bd 1011 123d
00000110: f86c 92bc d45f 02bd f943 e23c 4031 da3c
00000120: 21ef b63a a471 8e3b dab0 cf3b 6612 073d
00000130: d143 d23c 39a3 bb3c 6bea 7dbc b3a9 7c3c
00000140: b80e 5abc 87ee 02bd b208 8abc f5a4 eb3c
00000150: 2155 153d 13f1 adbc 9c89 12bd ba12 33bd
00000160: 080e e23c 92f9 99bc dc67 aa3c bc74 36bd
00000170: 0db6 0ebd cae7 febc e2e3 6fbc a6ce f73b
00000180: 7997 abbc bd47 7bbb ff7d f63c 21b6 47bc
00000190: 4a52 35bd 8a22 5c3c b770 37bd a267 90bc
000001a0: 0397 f3bc 3764 02bc 812a 40bd 0b4e bd3a
000001b0: 26d6 31bd 9868 f1bc aedd 2a3c b109 39bc
000001c0: ef10 ce3b c8ea 2c3a c9b1 a43c b65b f3bc
000001d0: aed9 db3c 8d90 3b3c fdab 19bd 2cf2 e33c
000001e0: a46b df3b 36f4 173d 985f 22bc 63c8 2a3c
000001f0: c11c 163d 5d6e 823c 81ac 07bc ab28 3abd
00000200: 015b f7bc b0fc 28bd 953b 1cbd a360 d23a
00000210: 796f 70bc d44b 37bd e7e2 553c 2576 b4bc
00000220: 30eb 21bd 28e0 d93c 80d0 fcbc 0a56 a9bc
00000230: 485c c2bc ad73 c6bc a293 b13b bd1f aeba
00000240: 8c01 3f3b a624 15bd 11b5 8b3c 8d40 51bc
00000250: 1b2c 573c 8f36 c83c 63a5 f03c 78ca 723c
00000260: 9b91 e1bc d2cd d23c 9ff9 04bd 7f97 0dbd
00000270: 4094 d93c dc7c 023c fdc5 55bc 8ed9 6fbc
00000280: 287e c03c 1eaf b3bc 1d6a 823c cd53 26bd
00000290: a539 61bb d861 9bbc eb34 68bc 1f11 71bc
000002a0: c4bd 2ebd e424 3d3c 0c5c 0fbc 2046 0ebc
000002b0: a249 5ebc 09ee e3bc c899 2d3b e428 d3bc
000002c0: 6f4c df3c 7edc 2fbc e8ca cd3a a38e 38bd
000002d0: 355d 5d3c 204b df3c 5aea f43c e583 113d
000002e0: 2675 f73c 57cf b2bc a8ae d23c 9c81 70bc
000002f0: 38f6 0cbd e473 32bd 9417 413c 55e4 d6bc
00000300: 0471 2abc 7c5a 11bd 49b3 fc3c 7ca5 ad3c
00000310: 6a34 053d 672f fa3c 9b24 b1ba 3bc8 09bd
00000320: 089f 8bbb ede9 7a3c c18e 9d3c be12 1e3c
00000330: 4784 723c 09a2 a43a a75b 26ba 25c9 d6bb
00000340: 3c8d 04bc 07f6 7fbc b123 463a 5d3d ddbc
00000350: 917b 33bd 97b1 e5bc a758 3abc 8ad2 1ebd
00000360: 0ede 323c 8b2b edbc ab81 b13c d1ab a03c
00000370: aeba d03c 85af 01bb ab62 2dbc 2eb8 863b
00000380: 2b3f be3c c131 3b3b 5f4d bb3c 219f e63c
00000390: c7fb e9bc 23cf 583c 2451 0abd f65a c8bc
000003a0: 73c9 b5bb d027 53bc 32be 1cbd 0405 6abc
000003b0: f19f 0b3d 681b 843c 5e25 01bd c6a2 39bd
000003c0: 218f 40bd 2263 61bc b713 8a3c 4296 143b
000003d0: b6f8 eb36 9f47 c63c af32 1b3c 5542 883c
000003e0: 3294 c7bc 0a7b e0bc dafd ccbc b0da 23bd
000003f0: 1f11 78ba 579c f23b 33e6 dabb be62 c038
-0.037612 -0.0036577485 0.01743485 0.01088377 -0.013071551 0.031145561 -0.03672828 0.013945606
-0.022010705 -0.011973994 0.022714157 0.0068431622 -0.013145982 0.002917988 0.016445266 0.021109741
-0.04431837 -0.029649962 -0.007900134 0.013605279 -0.044399917 -0.0077100447 -0.034184273 -0.0030418911
0.009140766 0.0023097747 -0.011229736 -0.022751642 -0.016672578 -0.027198425 0.011754745 0.0036318824
0.024654957 0.03411789 0.018627498 0.0231569 0.0048291963 0.0196717 9.058621e-05 -0.041829616
-0.015262572 0.02720965 0.020097913 -0.022300912 -0.038855027 -0.017496476 0.032847404 -0.006600667
-0.0031910012 0.015562293 -0.03231257 -0.029665412 0.004265616 -0.024132377 0.020104004 -0.026542861
0.013524981 -0.027434666 -0.032647163 -0.01689808 -0.044704407 0.034513574 0.030536296 -0.021453101
0.027755236 0.015733834 -0.040428635 0.035660803 -0.017874226 -0.03182967 0.027620303 0.026634812
0.0013956764 0.004347043 0.006338221 0.03297653 0.025667103 0.022904979 -0.015497784 0.015421319
-0.013309173 -0.03196576 -0.01684985 0.028765181 0.03645814 -0.021233117 -0.035775766 -0.04371903
0.027594581 -0.018795762 0.020801477 -0.04454492 -0.034841586 -0.031116385 -0.014641734 0.007562476
-0.020946251 -0.003834232 0.030089376 -0.012189419 -0.04426793 0.013435969 -0.044785228 -0.017627541
-0.029735094 -0.007958463 -0.046915535 0.0014442814 -0.04341712 -0.02946882 0.010428829 -0.0112938145
0.0062886397 0.00065962644 0.020104306 -0.029706817 0.026837196 0.011448038 -0.037517536 0.027825437
0.0068182517 0.037098132 -0.009910487 0.0104237525 0.036648516 0.015921766 -0.008280874 -0.04544894
-0.030194761 -0.041256607 -0.03814276 0.0016050529 -0.014675015 -0.04475005 0.013054586 -0.022028992
-0.039530933 0.026596144 -0.03086114 -0.02067091 -0.023725644 -0.02422508 0.0054192105 -0.0013284605
0.002914521 -0.036411904 0.017054113 -0.012771738 0.013133074 0.024440078 0.029375738 0.01481878
-0.02753525 0.025732908 -0.03246462 -0.034568306 0.026559949 0.007964339 -0.013047692 -0.014639271
0.023497656 -0.021934088 0.01591974 -0.040607262 -0.0034366634 -0.018967554 -0.014172773 -0.014713555
-0.042661443 0.01154444 -0.008749973 -0.008683711 -0.01356736 -0.027823465 0.0026489366 -0.025776334
0.027258126 -0.010733722 0.001570073 -0.045057904 0.013510992 0.027257502 0.029896904 0.035526175
0.030207228 -0.021827383 0.025718048 -0.014679339 -0.0344145 -0.043567553 0.011785407 -0.026231924
-0.010402922 -0.035486683 0.030847209 0.021197073 0.03252069 0.030540181 -0.0013514938 -0.03363822
-0.0042609014 0.015314561 0.01923311 0.009648023 0.014802045 0.0012560497 -0.0006346055 -0.00655474
-0.0080903135 -0.015622622 0.0007558419 -0.0270068 -0.043819014 -0.028038783 -0.011373675 -0.038775004
0.0109172 -0.028951427 0.021668276 0.019613178 0.02547964 -0.0019788456 -0.010582606 0.0041113114
0.02322348 0.0028563591 0.022864042 0.02815205 -0.02856244 0.013232979 -0.033768788 -0.024457436
-0.0055476963 -0.01288791 -0.038267322 -0.014283422 0.03408808 0.01612635 -0.031529777 -0.04532125
-0.0470115 -0.013756545 0.016855104 0.0022672568 7.0324995e-06 0.024204073 0.009472533 0.016633192
-0.024362657 -0.02740242 -0.02502339 -0.04000348 -0.00094630005 0.007403891 -0.006680274 9.1736656e-05

features.5.bias f4 [64]
00000000: eeff 2dbd e1bd 0f3d f394 033d f86b bdbb
00000010: 3aad 743c 8f8d dbbc 267e 33bc dc98 723c
00000020: 053e 93bc dc20 fb3c 513b 5c3c 2015 06bd
00000030: ce97 c7bc 43d7 16bc 8eb8 893c 9eef 193d
00000040: aa2c 0e3d 3c3f 473c 57b2 853c 0498 343c
00000050: dd1d a4bc 9c54 dbbc 8059 b0bc 5d1d 42bc
00000060: 1f88 1cbc 7d6e 3ebd e298 d13c 8492 e3bc
00000070: 3d9b 39ba ddf4 12bb 1de4 b3bc c170 16bd
00000080: fc92 1fbd 9666 1c3d 9651 083d 7933 063d
00000090: 4216 093c 5c8c a93c 67f2 2d3c 25a4 48bc
000000a0: 1f99 073d 56ca 023c c59a 2abc 9404 573c
000000b0: 8d2c 553c 284d 003d b01a 37bd ff2e 133d
000000c0: 1404 09bd ae32 0c3d ec47 183c f7a8 2abc
000000d0: a6b6 413b 6da2 253c 0b64 e63b 69bf c73a
000000e0: 803f 753c 56e3 2cbc 3037 083d 5f96 8cb9
000000f0: 7e95 05bd 8e6a 013d ed50 c43c 6204 3ebd
-0.0424804 0.035093192 0.03212447 -0.005780693 0.014933879 -0.026800899 -0.010955369 0.014806952
-0.01797391 0.030655317 0.0134418765 -0.03273499 -0.024364378 -0.009206596 0.016811635 0.037582032
0.034710564 0.012161072 0.01632039 0.0110225715 -0.020033771 -0.026773743 -0.021527052 -0.011847821
-0.009553938 -0.04649209 0.025585596 -0.027779825 -0.0007080322 -0.0022423782 -0.021959359 -0.036728624
-0.038958535 0.03818377 0.03328093 0.032763932 0.008367123 0.020696811 0.010616875 -0.012246166
0.033105012 0.007982811 -0.0104128765 0.01312365 0.01301111 0.031323582 -0.044703186 0.03593349
-0.033451155 0.03422802 0.009294491 -0.010416261 0.002955833 0.010109526 0.007030969 0.001523954
0.014968753 -0.010552248 0.033255756 -0.00026814916 -0.03261327 0.03159576 0.02396437 -0.0463909

features.7.weight f4 [64, 64, 3, 3]
00000000: 30be d0bb 4154 1bbd ed98 453c b365 22bc
00000010: 83c2 253c d7b3 cdbc 4174 ccbc 5bf1 04bd
00000020: 664b 54bb c85c 9d3c cd38 f23c ea0e 02bd
00000030: 605c cbbb 4db6 18bd fc2f 213c a841 603c
00000040: ee2f 213d 61a3 d6bc 3f06 2d3d e936 233d
00000050: 0ff9 093d 4666 1c3d 6079 cabc 4b4f 0cbd
00000060: 1321 a3ba ff05 0bbd fa3a 403d 8450 8bbc
00000070: 9b69 07bd 6c7d 9a3c dec2 3e3c a1e7 0f3c
00000080: df4b 363c c63c aa3c aecd dcbc 7cc2 31bc
00000090: 1467 adbc da3b 42bd b947 01bc ff9b 00bc
000000a0: 3607 1ebd 780d ad3b 5ae5 80bc 479d 39bc
000000b0: 527e 35bd 7b0f b43b 46ef 42bc 4228 89bb
000000c0: 4642 db3c ff9e b5bc 2f7f 2ebc f627 253d
000000d0: 3544 9abc e8a7 19bd 6800 71bc ea1c 263d
000000e0: c616 3cbd 927c aa3c 5799 f2bb aa49 1cbd
000000f0: 5035 4e3c c1b1 b53c 6022 2c3d 2ded 233c
00000100: f003 7ebc 6f9d a93b 5db0 a93c 6c02 8d3c
00000110: b115 89bc 78e4 82bc ef17 003d 9fbe 333c
00000120: 0790 2bbc 6de5 133d 5be4 0b3d 6066 f33c
00000130: 810a 3a3d bc80 b03c 9afb d33c 167c 94bb
00000140: 4722 d2bc 83c4 bdbc 507a a83c efb9 acbc
00000150: 42f6 25bc e182 68bd fe06 a43c ecf8 c7bb
00000160: a649 8e3b 9d22 d7bc 81be 94bc cb9e 9abc
00000170: 10bf 613c 6f2b 823b f55a dc3b 794c 503c
00000180: 45bf a2bc 6477 dfbc 1193 c73c 5cec 29bd
00000190: a055 023d 0a8d fcbb d020 99bc 0b58 35bd
000001a0: 07b3 e33c 4d2c 68bd 3409 8ebc cdae 54bd
000001b0: ea0a 9a3a f292 efba 0dcb 053d d4e4 393d
000001c0: 3f0d e83b afde 003d 3d0b e6bc 3b75 0ebd
000001d0: fabb b53b 47a3 e3bc 7e2b 44bc 0fda 2b3d
000001e0: 01f3 0c3d e681 c4bc f698 1b3d bafa 383d
000001f0: b7fb 09bd e648 dabc 1e80 be3c 183e df3c
00000200: 30ac 073d e19d 95bc ac5f 1dbd 81b2 083c
00000210: efc8 203b ed25 18bd bf41 ae3c 0661 3cbb
00000220: ba8e ba3c b4f4 70bc 9678 a63c c6ea cc3c
00000230: e117 443c d89f bd3c 1289 3a3c 3b77 76bc
00000240: c1c2 a9bc 9a77 0a3d 8b43 27bd b99c ce3c
00000250: fdff a43c 1ad4 f2bc 4f02 acbb 0459 e73c
00000260: 0ac2 a8bc 2533 063d 45f0 003d 76b6 8b3b
00000270: 3d33 c13b d631 e4bc 9734 ce3c a35b a1bc
00000280: 7fe7 c23b c6a2 9c3c 4432 e23c 3dc4 753c
00000290: 7c85 f43c 1189 fcbb 812a 88bc a004 83bc
000002a0: 83fc 123c 34b0 22bd 65f3 78bc 6f87 d63c
000002b0: ac68 4b39 1787 02bd 2208 40bc 2425 efbb
000002c0: 8ba4 08bd 08ca 723c 1517 1dbc 6ad4 a9bc
000002d0: f221 e93c aa12 133d f630 3d3d d540 fbbb
000002e0: 112c 323b db51 b8bc e048 c3bc 2ec4 373d
000002f0: 8701 8dbb f304 0b3d f498 9e3c b3bd 9dbc
00000300: ad0b 04bc a762 5fbc 328f fe3b 840a 443b
00000310: 6e38 30bd cd43 033d 7692 2dbd 04f0 d23c
00000320: ddbb 323d 843b 063c b797 2d3c 9ac8 dcbc
00000330: fda8 d83c 4c8c a7bc acda 0fbc 17c6 7d3c
00000340: 76e9 93bb ba27 653b f8b9 5dbc a91b d93c
00000350: 56d2 1b3d 7b52 e23c 2030 acbc 06cf df3c
00000360: 31cf cb3c 9c2d e13c c8d1 bebc 6e3f 24bc
00000370: 400c 8d3c 2ee2 0d3d d211 b23c 1a1c e9bc
00000380: 29a3 21bd 7094 0fbc 4913 313c 56f7 a9ba
00000390: b210 ef3c 36e4 263d c9fc 703c 8000 4ebd
000003a0: c49d 583c 54c6 6cbb add7 03bd d98d d83c
000003b0: 4a6f 20bd 3eb0 75b9 ac9b 93bc 4df8 33bd
000003c0: 73ec c43b 67c5 e2bc 7494 02bd 4345 073c
000003d0: 84f9 22bd 70fb 953c bf90 37bd 7c8a 47bd
000003e0: a7c1 803c 3f65 b6bc 8644 73bc b975 ae3b
000003f0: fa00 4abb 53b5 1b3d 9167 47bc 5a7a a0bc
-0.0063703284 -0.037922148 0.012060386 -0.009911942 0.010117176 -0.025110168 -0.024957778 -0.032456737
-0.0032393574 0.01920928 0.0295681 -0.031752504 -0.0062060803 -0.03728323 0.0098381005 0.013687529
0.03935235 -0.026200952 0.042242285 0.03984729 0.033684786 0.038183473 -0.02471608 -0.034255307
-0.001244577 -0.033941265 0.046931244 -0.017006166 -0.033059698 0.018858634 0.01164314 0.008783252
0.0111264875 0.020780932 -0.026953544 -0.010849591 -0.021167316 -0.04742036 -0.007890635 -0.007849692
-0.038581096 0.0052811466 -0.015734363 -0.011329002 -0.04430992 0.0054950095 -0.011897868 -0.0041857073
0.026765 -0.022170542 -0.01065044 0.040321313 -0.018831352 -0.037513644 -0.0147095695 0.04055492
-0.045920156 0.020811353 -0.0074035334 -0.03815619 0.012585953 0.022179486 0.04202497 0.010005278
-0.015503868 0.0051762382 0.02071398 0.017213069 -0.016733976 -0.015978083 0.031272825 0.010970741
-0.0104713505 0.03610747 0.034153324 0.029711902 0.045420174 0.02154576 0.025876809 -0.0045313938
-0.02565111 -0.023164993 0.020566136 -0.021084754 -0.010129513 -0.05676544 0.020022865 -0.006102672
0.0043422757 -0.026261622 -0.018157246 -0.018874547 0.013778463 0.003972463 0.00672471 0.012713545
-0.019866595 -0.02727861 0.024362119 -0.041485175 0.03181994 -0.007707243 -0.018692404 -0.044273417
0.027795328 -0.056682874 -0.017338373 -0.051924516 0.001175252 -0.0018278046 0.032664347 0.045384243
0.007081657 0.031462368 -0.02808153 -0.03477977 0.00554609 -0.027787818 -0.01197326 0.041956004
0.034411434 -0.023987722 0.03798767 0.045160986 -0.03368732 -0.026646089 0.02325445 0.027251288
0.033123195 -0.01826376 -0.038421318 0.00834334 0.0024533828 -0.037145544 0.021271585 -0.0028744354
0.022773135 -0.014706779 0.020321172 0.025014292 0.011968584 0.023147509 0.011385219 -0.015043075
-0.020722749 0.033805467 -0.0408359 0.025221216 0.020141596 -0.029642154 -0.0052492986 0.028240688
-0.020600338 0.03276362 0.03147914 0.0042636944 0.0058960007 -0.027855795 0.025171561 -0.019697016
0.0059480066 0.019120585 0.02761186 0.0150004 0.029848807 -0.0077067693 -0.01662183 -0.015993416
0.008971336 -0.03971882 -0.0151947485 0.026187627 0.00019398582 -0.031867113 -0.011720689 -0.0072981287
-0.033360045 0.014818676 -0.009588023 -0.02073117 0.02845857 0.03590647 0.04618927 -0.0076676407
0.002718691 -0.02249997 -0.02383846 0.044864826 -0.0043031606 0.033940267 0.019360043 -0.019255495
-0.008059424 -0.01363436 0.007768535 0.0029913494 -0.043022566 0.03204708 -0.042376004 0.025749214
0.04363619 0.008192901 0.010595254 -0.026951123 0.026447767 -0.020452641 -0.008780163 0.015489123
-0.0045139147 0.0034966306 -0.013533108 0.026502447 0.03804239 0.02762722 -0.021019042 0.027320396
0.02487907 0.027487569 -0.02329339 -0.010024888 0.017217755 0.03463953 0.021737013 -0.028455783
-0.039462242 -0.008763418 0.010807821 -0.0012967389 0.029182766 0.040744983 0.014708706 -0.050293446
0.013221208 -0.0036128955 -0.032188106 0.026434826 -0.039168634 -0.00023430676 -0.018018566 -0.04393797
0.0060096323 -0.02768202 -0.031879857 0.008256259 -0.039788738 0.018308371 -0.044815775 -0.048716053
0.01571734 -0.022265075 -0.01484788 0.005324092 -0.0030823336 0.03801472 -0.012170688 -0.019589592

features.7.bias f4 [64]
00000000: 8dfe aabc 03c2 18bd c127 b3bc baf4 95bc
00000010: f3bf 9fbc dce0 3abd 5737 f33a 38ea 1c3d
00000020: caca be3b c1a6 90bc 5661 20bd a572 273b
00000030: 071b 693c bcd8 43bd 2e7b 4fbd 3ca4 3bbd
00000040: 6920 9dbc 5a55 863b 3479 0cbd 390d 7f3c
00000050: 12ae 98bc 9d32 28bd 45dd b4bb 7dd6 173d
00000060: 9c00 a73c 9d65 13bd fe06 a0bc 0d5b 7cbc
00000070: 0671 b13c 9dc7 2dbd 6645 273d 33bf f53c
00000080: 0b74 36bd ddc8 e5bc 7286 1d3d a508 d33c
00000090: 9d14 2fbd ee92 30bd 9efa 223c 565e 0dbc
000000a0: 4439 d53b 3452 6e3c 5c06 0ebc 3012 9d3c
000000b0: 3aad 06bd ce3b 0bbc 2589 3abd 5b71 0dbc
000000c0: 1eb5 1a3d c27a 1ebd 491f 40bc a0fd dabc
000000d0: 2668 023d 1d00 4a3d b0ce cb3c fdfb f9bc
000000e0: 5e19 6cbc 1a18 65bc 6dbd 14bd e6b4 9dbc
000000f0: 43e3 d23c c1c9 cd3b cfc0 1abd 2197 00bd
-0.020873332 -0.0372944 -0.021869542 -0.018305171 -0.019500708 -0.0456246 0.0018555921 0.038309306
0.005822514 -0.01765764 -0.039155327 0.0025550511 0.014227635 -0.047814116 -0.050654583 -0.045810923
-0.019180493 0.00409953 -0.034295276 0.015567117 -0.01863769 -0.041063894 -0.0055195414 0.037069786
0.020386033 -0.035985578 -0.019534584 -0.015402568 0.02166034 -0.042426694 0.040837668 0.029998397
-0.04454426 -0.02804988 0.038458295 0.025760958 -0.042744268 -0.043108873 0.009947447 -0.0086284485
0.0065070707 0.014545966 -0.008668508 0.019173712 -0.032880045 -0.008498145 -0.045540947 -0.008632983
0.037770383 -0.03869129 -0.011726209 -0.026732266 0.031837605 0.049316514 0.02487883 -0.030515665
-0.014410345 -0.013982797 -0.036313463 -0.019251298 0.025743132 0.0062801545 -0.037781533 -0.031394128

classifier.1.weight f4 [5, 16384]
00000000: 6518 28bb 5f88 1139 e87b a1bb 42bc 61bc
00000010: 41ac b6bb 8ea9 2bbc 4f7c 15bc ec78 a5bb
00000020: a2ff d4bb f027 dbbb 1e39 47bc 8cc1 ddba
00000030: 0a7c 09bc 360c 7bbc 63ef 25bb cec0 89bc
00000040: 19b2 7bbc 0a95 bbbb 9669 87bc e838 8fbc
00000050: d097 62bb 6899 c5bb 8423 3dbc 3eb4 86bc
00000060: 12a7 1bbc 5681 42bc 6f8d 75bc 642b d5b9
00000070: 3cbe a0bc edae a2bc 5b94 49bc 970c 5cbc
00000080: c0b2 15bb 7de2 26bc ae84 5fbc d321 d3bb
00000090: 3401 99bb 37ae 183b 3c3a 6cbb 94c0 043c
000000a0: 9eba 9bbc fa5e 65bc 78c1 fabb 6f75 4fbc
000000b0: 44bc 2ebc 9452 13bc d43d c7bc 10a4 91bc
000000c0: 403d 983b f42d 953b 9181 c33a 4223 a8ba
000000d0: 222c b1bb 07be 10bc a573 44bb 6805 14bc
000000e0: 5c4a 43bb c3a3 ad3a e976 433b 460d 4abc
000000f0: 190c 81bc 29b9 77bc cfbd 64bc a546 afbc
00000100: a37d 51bb aab7 333b 38aa aa3a 37c6 79bb
00000110: 84a8 03bc c9a1 e2bb d881 a4bb 0559 923b
00000120: d0b1 61b9 b615 933b c08a 95b9 cc94 93bb
00000130: 2891 62bc 3adf 0fbc 6e6d 29bc 5692 73bc
00000140: 0d6f 60ba bb4c 7a39 8c39 dfba 8dbe 3cbc
00000150: 7a83 3aba 6080 ed3b 58a8 94bb a78b c53a
00000160: f501 d3ba befd 173c 14a3 823b 8e40 f93b
00000170: f04f 9f3b 3c5d ed3b f5bd 913a 1fda 1fbc
00000180: dcec 2bbc d10f 8abc bed8 bbbb f0bf 1cbc
00000190: 29e3 9fba 7ee1 603b 3176 713b ea7d 693c
000001a0: a1f5 8c3a a177 663c 97ce 883c 877e 843c
000001b0: 1ac2 fd3b 5190 5f3a b492 dd3b 2ead 533b
000001c0: 97ff 8bbc cce2 57bc f75d 72bc 5448 b8bb
000001d0: 8b5e 20bc 9a37 30bb 300e 173c d617 8e3c
000001e0: 6536 613c beae 6c3b 727a 0e3c 94fe 523b
000001f0: b1dc 903b e7b1 853c 6b86 fc3b a97e e6bb
00000200: dc28 cfbc da97 09bc 207f 0ebc d837 e2ba
00000210: ecae a53b c59e 2f3c c6e4 143c 6455 743c
00000220: bfc0 ca3c 162a 393c 4efb 6c3b bac3 a73b
00000230: 74a9 323c 38a8 303c 7ad8 3d3b 4cae 33bb
00000240: 3e65 12bc cadd 81bc 3dc1 75bb 6ed8 aabb
00000250: ec19 c0bb 99f3 723a 2f4a 7f3c 0e5b 7b3c
00000260: a414 a73c 7df6 823c cd9e 123a 079f f63b
00000270: 120f 0b3c ecfa 1f3c 821b 0d3c 7851 3fbb
00000280: 60d1 95bb 6508 83bb 64cd 67bc 6022 49bc
00000290: 5d5b 44bc 4775 97ba 2fbf c93a 7e2b 1d3c
000002a0: 9774 e73b 590b 6f3c 0020 113c 5201 053c
000002b0: 1a87 5a3c 99ef bc3a 5e63 c1bb b34a 013b
000002c0: 6775 073b 9ae4 bdbb 090a 10bc 03a1 3cbc
000002d0: ba26 38bc 58e2 823b 3040 1d3c b69d 133c
000002e0: 2af2 963b 9924 893c 31d0 033c cd51 783b
000002f0: 8d78 223c f849 c839 098b c93a 5457 b6bb
00000300: b4e3 d2bb 788a 96bc 2646 b1bb 2664 a3bc
00000310: d7de 86bb 4b61 653c 6efb 913b 4086 ddbb
00000320: 6fa6 c53a 9c5c 143c 6e0e 153c bb93 183c
00000330: a332 923c df12 8f3c 33cc 1cba 59f3 dcbb
00000340: 6e45 1dbc 2c32 10bc d4c7 de39 8765 d3bb
00000350: a66e 61bb b27f 633c 024b 3339 5c85 1f3b
00000360: c6b7 7c3c 6760 943b 5b7b 3b3c e24b 98ba
00000370: 72ab 813c 8774 383c 3a69 8f3b 551d b5bb
00000380: 485c e33a 596e 96ba 12c2 9abb 1d8a a039
00000390: 16b3 e3bb c32d 54bb 5e2e fe3b e72b eb3b
000003a0: bd6c b53a 6061 233c f6c0 0c3c dc0d 893b
000003b0: 03c0 1e3c e4bd aa3b e830 d53b 80d8 59b9
000003c0: 52af ca3b ac31 f1bb 10df e8ba 76ef 8ebb
000003d0: 3548 4ebc 8265 f9bb 5423 7cbb f9f8 01ba
000003e0: ffce a3bb 15e9 1abc 9725 55bc 553c b43a
000003f0: 9982 abbb a94e 2cbb f4cc 17bb 2d75 e6bb
-0.0025649306 0.0001387908 -0.004928101 -0.013777794 -0.0055747335 -0.010477437 -0.009123876 -0.0050498154
-0.0065002004 -0.0066881105 -0.012159614 -0.0016918643 -0.00839139 -0.0153227355 -0.0025319688 -0.01681557
-0.015362286 -0.005724554 -0.01652984 -0.01748319 -0.003457535 -0.0060302503 -0.011544112 -0.016443368
-0.009500282 -0.011871656 -0.014987334 -0.00040658854 -0.01962196 -0.019858802 -0.012303437 -0.013430736
-0.002284214 -0.010185835 -0.013642473 -0.006443241 -0.004669333 0.00232972 -0.0036045453 0.008102555
-0.019009884 -0.013999695 -0.007652458 -0.012662276 -0.010665003 -0.008991856 -0.024321474 -0.017778426
0.0046459734 0.004552597 0.0014915933 -0.001282789 -0.0054068724 -0.008834369 -0.0029976156 -0.009034492
-0.002979896 0.0013247657 0.0029825515 -0.012332266 -0.015752839 -0.015119829 -0.0139612695 -0.02139599
-0.0031965754 0.0027422705 0.00130207 -0.003811253 -0.008035783 -0.006916259 -0.0050203614 0.0044661784
-0.00021523912 0.004488672 -0.0002852287 -0.004503822 -0.013828553 -0.008781249 -0.0103410315 -0.014866432
-0.000856147 0.00023870442 -0.00170307 -0.01152004 -0.00071149284 0.0072479695 -0.0045366697 0.0015071527
-0.0016098606 0.009276805 0.0039867256 0.0076065725 0.004861824 0.0072437804 0.0011119234 -0.009756594
-0.010493483 -0.016853245 -0.005732625 -0.009567246 -0.0012198436 0.0034314091 0.003684413 0.014251212
0.0010754355 0.014066608 0.016700072 0.016173614 0.007744086 0.000852828 0.006761873 0.0032299268
-0.017089648 -0.013176631 -0.014792911 -0.0056238566 -0.009788166 -0.002688861 0.009219691 0.01734535
0.013745879 0.0036114897 0.008696185 0.0032195197 0.0044208397 0.016320182 0.0077064536 -0.007034142
-0.025288038 -0.008398021 -0.008697301 -0.0017259074 0.0050562527 0.010719006 0.009087747 0.014912937
0.024750112 0.011301538 0.0036160531 0.005119768 0.010904659 0.010782294 0.0028968141 -0.0027417121
-0.008935271 -0.015852828 -0.0037499212 -0.0052137887 -0.005862465 0.0009267866 0.015581652 0.015341533
0.020395584 0.015986675 0.0005593121 0.0075262818 0.00848748 0.009764414 0.008612515 -0.0029192846
-0.0045720786 -0.0039988034 -0.01414809 -0.012276262 -0.011984673 -0.0011555337 0.001539206 0.009592889
0.007063459 0.014590108 0.008857727 0.008117991 0.013337875 0.0014414667 -0.005901738 0.0019728362
0.0020669342 -0.0057950737 -0.008791455 -0.011512998 -0.011239702 0.0039942674 0.009597823 0.009009769
0.004606505 0.016741084 0.008045242 0.0037890554 0.009916437 0.00038202084 0.0015376519 -0.0055646095
-0.0064358357 -0.018376574 -0.0054099737 -0.019945215 -0.00411592 0.014000247 0.0044550216 -0.0067603886
0.0015079508 0.009055283 0.009097679 0.009312565 0.017846411 0.017465053 -0.0005981356 -0.0067428765
-0.009599073 -0.008801024 0.00042492023 -0.006451312 -0.0034398227 0.013885425 0.00017098713 0.0024340963
0.015424674 0.0045280936 0.011442984 -0.0011619295 0.015828822 0.011258251 0.0043765577 -0.0055271783
0.0017346228 -0.0011476978 -0.004722842 0.0003062048 -0.006948839 -0.003237591 0.0077569922 0.0071768644
0.0013841611 0.0099719465 0.008590927 0.0041825604 0.009689334 0.005210625 0.006506074 -0.00020775385
0.0061854506 -0.0073606577 -0.0017766673 -0.004362042 -0.012590458 -0.0076109776 -0.0038473206 -0.0004958059
-0.004999041 -0.009454985 -0.01300945 0.001375089 -0.0052340743 -0.0026292002 -0.0023162933 -0.0070330114

classifier.1.bias f4 [5]
00000000: c8ba dd3b af79 c73c 7d92 a1bb 6f3c 6bbb
00000010: 6980 1abc
0.006766651 0.024350015 -0.004930793 -0.0035894176 -0.009430029
