models/accelerate_GradAccumulation_model_4/trained_models/tinyvgg_model_GradAcc.pth (torch, 782332 bytes, 10 tensors)

features.0.weight f4 [64, 3, 3, 3]
0	0x3ccb15f9	0.02479075
1	0x3a8661b2	0.0010252504
2	0x3d065f82	0.032805927
3	0xbb8f3e5d	-0.004371448
4	0x3c211902	0.0098326225
5	0xbdfe7898	-0.12425345
6	0xbe28fe7c	-0.16503328
7	0x3ca9110d	0.020638013
8	0x3bd3fd6e	0.00646942
9	0xbdc7a19f	-0.09747624
10	0x3dbd7c35	0.09252206
11	0xbe3fd8a7	-0.1873499
12	0xbdb58e67	-0.08865052
13	0xbe07c296	-0.13257822
14	0xbe0a6534	-0.13515168
15	0x3db4ea5b	0.08833762
16	0x3e06e8f9	0.1317481
17	0xbe1386bb	-0.14406864
18	0x3c4a2da6	0.012339985
19	0x3e14d16f	0.14533018
20	0xbdd7e39f	-0.10541462
21	0x3d80f2d9	0.062963195
22	0xbd9acda7	-0.07558756
23	0x3da499d0	0.0803715
24	0x3e1586bf	0.14602183
25	0x3dc7ca7c	0.09755418
26	0x3e0c961e	0.1372914
27	0x3bfab1c6	0.007650587
28	0x3d978d5e	0.074000105
29	0xbe3052d1	-0.17219092
30	0x39e40523	0.00043491376
31	0xbe3a9841	-0.18222143
32	0xbde2a2a2	-0.11066176
33	0xbcb8ab6a	-0.022542674
34	0xbcc47a49	-0.023984091
35	0x3db9f4bb	0.09079882
36	0x3baa6aca	0.0052007185
37	0xbb90028f	-0.0043948363
38	0x3e32a35f	0.17445134
39	0xbd5732ac	-0.05253856
40	0xbd295cec	-0.041348383
41	0xbe1d8834	-0.15383989
42	0x3de5465e	0.11195062
43	0xbd931527	-0.07181769
44	0x3df62262	0.12018277
45	0x3e4a0c3b	0.19731228
46	0x3e43f413	0.19136076
47	0x3e0704d2	0.13185433
48	0x3d8b3bfe	0.06798552
49	0xbd87c97a	-0.066302255
50	0x3dda7480	0.10666752
51	0xbe26d6d9	-0.16292895
52	0x3b133808	0.0022463817
53	0x3e32ef67	0.17474137
54	0x3d27a115	0.040925104
55	0x3d24d599	0.040242765
56	0x3e23b775	0.15987952
57	0x3ddee3d6	0.108833
58	0xbe401d74	-0.18761235
59	0x3c82d4b7	0.015970571
60	0x3e265365	0.1624275
61	0x3dfc678b	0.12324437
62	0x3d238b8f	0.039928015
63	0x3d0d7bf8	0.034542054
64	0x3d0a9215	0.03383072
65	0xbd855f8b	-0.06512364
66	0xbe421151	-0.18951918
67	0x3e074bb5	0.13212474
68	0xbd1dff98	-0.03857383
69	0xbe1f7fa9	-0.15576042
70	0x3d9fa69e	0.077954516
71	0x3e2dc8b6	0.16971096
72	0x3cc9d5bc	0.02463805
73	0xbdd105db	-0.10206195
74	0x3d01b318	0.031664938
75	0xbe1f372f	-0.15548395
76	0x3c8fc366	0.017549228
77	0xbd0cec57	-0.03440508
78	0xbcd3553a	-0.025797475
79	0xbe338a03	-0.17533116
80	0x3d921982	0.071337715
81	0xbcdb1159	-0.02674167
82	0xbc9eb4d6	-0.019373339
83	0x3c1c2e6c	0.009532552
84	0xbde82870	-0.11335838
85	0x3e2ee018	0.17077672
86	0x3e263d5b	0.16234343
87	0x3d8c3b97	0.06847303
88	0xbd9eae7e	-0.077481255
89	0x3cd5acc1	0.026083352
90	0xbbc61692	-0.006045171
91	0x3e338f70	0.17535186
92	0xbd1f3bdc	-0.038875446
93	0x3c91bf47	0.017791403
94	0xbd6d3aeb	-0.057917517
95	0xbe3d5ad4	-0.1849168
96	0x3d61fc9b	0.055172544
97	0xbe15fe30	-0.14647746
98	0x3e128b6c	0.14310998
99	0x3e41c991	0.18924548
100	0x3cfdaf43	0.03096736
101	0xbd864990	-0.06557
102	0xbe33d188	-0.17560399
103	0xbd8771aa	-0.066134766
104	0x3de38a7b	0.111103974
105	0x3d9c5591	0.07633508
106	0x3d6d6c82	0.05796481
107	0xbda67d0b	-0.08129319
108	0x3d49de9d	0.049284566
109	0xbe029897	-0.12753521
110	0x3d53f9c3	0.051751863
111	0x3e17ebd3	0.14836054
112	0xbe22e0b6	-0.15906033
113	0x3d800de5	0.0625265
114	0xbe1fb714	-0.15597183
115	0xbd6ee196	-0.058320604
116	0x3dcee4af	0.10102212
117	0x3d10b8d2	0.03533251
118	0xbe296164	-0.16541058
119	0xbe1962ce	-0.14979097
120	0xbd49de79	-0.049284432
121	0x3cb2d760	0.021831214
122	0x3d51403d	0.051086653
123	0xbbba57a0	-0.0056867152
124	0xbe42bdc9	-0.1901771
125	0xbe14e145	-0.14539059
126	0x3e191df9	0.1495284
127	0x3bbc58b8	0.005747881
128	0xbd62fd74	-0.055417493
129	0xbde6170c	-0.112348646
130	0x3e39bf8a	0.18139473
131	0xbe054bae	-0.13017151
132	0xbe15c138	-0.14624488
133	0xbd9c8aac	-0.07643637
134	0xbd6cf20c	-0.05784802
135	0x3e1cce12	0.15312985
136	0xbe122d30	-0.1427505
137	0xbd4ed72e	-0.05049818
138	0x3e067c3a	0.13133326
139	0x3e2a5b9b	0.16636507
140	0x3e1fb4be	0.15596291
141	0x3dfc5f2f	0.12322842
142	0xbe0ee8f5	-0.13956054
143	0x3d9359f9	0.07194895
144	0xbe4110c3	-0.1885405
145	0xbd844ddf	-0.06460165
146	0x3d335f0a	0.04379181
147	0x3e153aa2	0.14573148
148	0xbcb6c9ac	-0.022312962
149	0xbd889a8b	-0.06670102
150	0x3dc5cc6c	0.09658131
151	0xbde78ca7	-0.11306124
152	0x3d37228b	0.044710677
153	0x3d31aa96	0.043375574
154	0x3dc74fcc	0.09732017
155	0x3d432b2e	0.0476486
156	0xbcd8076f	-0.026370732
157	0x3db00f3f	0.08596658
158	0xbe3168fe	-0.17325208
159	0xbd285ee0	-0.041106105
160	0xbdc92852	-0.098221436
161	0x3e2ee8aa	0.17080942
162	0x3dd4b9a0	0.10386968
163	0x3e198a7c	0.14994234
164	0x3e328199	0.1743225
165	0xbdbb1323	-0.091345094
166	0xbdd42d0d	-0.10360155
167	0xbe2a1ee7	-0.16613351
168	0xbe4394d4	-0.19099742
169	0xbd39e347	-0.045382764
170	0x3d8f84bc	0.07007739
171	0x3d8b5c38	0.06804699
172	0xbd1299ae	-0.03579109
173	0x3e0850b0	0.1331203
174	0x3dd83b77	0.10558217
175	0x3d4ac1f7	0.049501386
176	0xbd8c9f50	-0.06866324
177	0xbe456842	-0.19278052
178	0xbb3beee7	-0.0028676332
179	0x3b43c42a	0.0029871562
180	0xbe456e40	-0.19280338
181	0x3dcc5063	0.0997627
182	0xbddf524c	-0.10904369
183	0xbe4d6718	-0.20058858
184	0x3d514a7a	0.051096417
185	0xbdfb28ab	-0.12263616
186	0x3de123df	0.1099317
187	0xbe2a1eec	-0.16613358
188	0xbdb8a861	-0.09016491
189	0x3d8d33ef	0.06894671
190	0x3ddeaf40	0.1087327
191	0x3e39f444	0.18159586
192	0x3dedb2a4	0.116063386
193	0x3e085628	0.13314116
194	0x3e0cdab2	0.137553
195	0x3e080264	0.13282162
196	0x3e25b7f7	0.16183458
197	0xbda94a5d	-0.08266137
198	0xbda5b238	-0.08090633
199	0x3db0301c	0.08602926
200	0xbe2e6dde	-0.17034099
201	0x3e194883	0.14969067
202	0xbdb9da02	-0.09074785
203	0xbc076dc9	-0.008265921
204	0xbd817842	-0.063217655
205	0xbdc2d0cd	-0.09512482
206	0xbde1cde3	-0.11025598
207	0x3e3b1e79	0.18273343
208	0xbddb33d3	-0.10703244
209	0xbdb1fb3b	-0.086904965
210	0xbe17faa9	-0.14841713
211	0x3c5499e0	0.01297614
212	0x3e128282	0.14307597
213	0xbd84047d	-0.064461686
214	0x3cc8f8b9	0.024532663
215	0xbe29d1d1	-0.16583945
216	0xbe084b53	-0.13309984
217	0xbd872c11	-0.06600202
218	0xbc5d593d	-0.013510046
219	0x3e38696b	0.18008964
220	0x3db96e59	0.0905425
221	0x3d8a8887	0.06764322
222	0x3ca4b494	0.020105638
223	0x3a94e7da	0.0011360601
224	0xbdaee4af	-0.08539712
225	0x3c125fcf	0.008933975
226	0x3e2ea730	0.17055964
227	0xbd79b8c5	-0.060967226
228	0x3a7f1c68	0.0009731711
229	0xbe2a00e4	-0.16601902
230	0xbb4f09c2	-0.003159151
231	0x3c64b0bd	0.013958153
232	0xbd8e441a	-0.06946583
233	0x3d02b09a	0.0319067
234	0x3e2d9f12	0.16955212
235	0x3d975432	0.07389106
236	0xbe042924	-0.12906319
237	0xbc8ec8bc	-0.017429702
238	0xbe16499d	-0.14676519
239	0xbe2a439d	-0.16627355
240	0xbe07a52b	-0.132466
241	0xbd42276c	-0.047400877
242	0xbe1d12f2	-0.15339258
243	0xbc55ffa1	-0.013061435
244	0x3d4d82a1	0.050173406
245	0x3e479616	0.19490847
246	0x3d980508	0.07422835
247	0xbd65dc01	-0.056118015
248	0x3cdc814a	0.026917119
249	0xbc348dac	-0.011020105
250	0xbdd78952	-0.10524239
251	0x3e4418f8	0.1915015
252	0xbc785385	-0.015156631
253	0xbd3001a0	-0.0429703
254	0x3e16eb73	0.14738254
255	0xbd4e2b59	-0.05033431

features.0.bias f4 [64]
0	0x3e29e1a8	0.16589987
1	0xbe107e31	-0.14110638
2	0x3c308d66	0.0107758995
3	0xbc6a4194	-0.014297862
4	0x3df9ff3c	0.12206885
5	0xbdac72f7	-0.08420365
6	0xbe316651	-0.17324187
7	0x3e01a5a4	0.12660843
8	0xbdc50655	-0.09620348
9	0x3e19b217	0.15009342
10	0x3e23967e	0.15975377
11	0xbd4bdfda	-0.04977403
12	0x3da57ea8	0.080807984
13	0xbd753f2c	-0.0598747
14	0xbd8e3cb6	-0.069451734
15	0xbd90fe5b	-0.070797645
16	0x3e2e5af3	0.17026882
17	0xbddffe89	-0.109372206
18	0x3cf69f65	0.030105302
19	0x3cbefad3	0.023312962
20	0xbdde0a19	-0.1084177
21	0xbd7e8770	-0.062140882
22	0x3ccee697	0.025256438
23	0x3e139ae6	0.14414558
24	0x3ddf1f52	0.10894646
25	0xbd5af9b0	-0.053460777
26	0x3dd5a88c	0.104325384
27	0xbe21809a	-0.15771714
28	0xbdd7770e	-0.10520755
29	0xbdc8ac06	-0.09798436
30	0xbe1d527a	-0.15363494
31	0xbddf457d	-0.10901926
32	0x3e040f20	0.12896395
33	0xbe34f11e	-0.17670104
34	0xbe1b9569	-0.15193714
35	0xbbf566ad	-0.0074890465
36	0xbdae5b78	-0.0851354
37	0x3d81cf98	0.063384235
38	0xbd75a321	-0.059970025
39	0xbc1a9b14	-0.009436388
40	0x3e239c6f	0.15977643
41	0x3dfc8e4d	0.12331829
42	0x3dfaf7f9	0.12254328
43	0x3d38db12	0.045130797
44	0xbdbfc79d	-0.09364245
45	0xbe1c6967	-0.15274583
46	0xbe2bb228	-0.1676718
47	0xbd47961d	-0.048727144
48	0xbe1ad1eb	-0.1511914
49	0xbc5959e9	-0.013266065
50	0x3d334ccc	0.04377441
51	0x3cf96324	0.030442782
52	0x3db4342f	0.08799016
53	0x3e2c0fda	0.16802922
54	0x3da97176	0.08273594
55	0xbd3a719a	-0.045518495
56	0xbe15311d	-0.14569516
57	0x3de37302	0.111059204
58	0x3de000b5	0.10937635
59	0x3e2ef8dd	0.17087121
60	0xbdd6e4ef	-0.10492884
61	0x3e4bff0c	0.19921511
62	0xbe0b89f4	-0.13626844
63	0x3e3717b1	0.17880131

features.2.weight f4 [64, 64, 3, 3]
0	0x3d13a621	0.036047105
1	0xbca9905b	-0.020698717
2	0x3ba9ebd5	0.005185584
3	0xbc84813a	-0.016174901
4	0x3d542ed3	0.051802468
5	0x3be23ec5	0.0069044554
6	0x3d595c39	0.053066466
7	0x3cc73fcf	0.024322418
8	0x3d5e90a7	0.05433717
9	0xbcaddddd	-0.021223957
10	0xbca912fb	-0.020638933
11	0x3c1771d5	0.009243448
12	0x3d535cc4	0.05160214
13	0x3d0867ad	0.033301998
14	0x3bb68493	0.0055700033
15	0x3cb56bff	0.022146223
16	0xbbd8f116	-0.0066205366
17	0xbc42da2e	-0.011892838
18	0xbb04737e	-0.002021044
19	0xbcaeb1b4	-0.02132497
20	0xbca50557	-0.020144148
21	0xbce2a7c0	-0.02766788
22	0xbd171e45	-0.0368941
23	0xbca380f5	-0.019958952
24	0xbd102ef1	-0.035201017
25	0xbd132935	-0.03592797
26	0x3d25717a	0.040391423
27	0xbc0df1b6	-0.008663585
28	0xbcfbadc5	-0.030722508
29	0xbc837612	-0.016047511
30	0xbb48c846	-0.003063695
31	0xbcf21abf	-0.02955377
32	0xbc144d50	-0.009051636
33	0xbce0ceaa	-0.027442295
34	0x3ce8a1e7	0.028397514
35	0x3b85bba0	0.0040812045
36	0x3cd85185	0.026406059
37	0x3c5abe57	0.013351045
38	0xbd203676	-0.039114438
39	0x3cf05ae5	0.029340217
40	0x3d0fccd4	0.03510745
41	0x3c6004de	0.013673035
42	0xbc06e45b	-0.008233155
43	0x3c0d7656	0.0086341705
44	0xbd078e4e	-0.033094697
45	0x3c655fbf	0.013999878
46	0x3c3e6817	0.011621497
47	0xbc9b5c02	-0.018964771
48	0x3d00fcd7	0.031491127
49	0x3d398f31	0.045302574
50	0x3d379d75	0.044827897
51	0x3d434cb8	0.047680587
52	0x3d0358e4	0.032067195
53	0xbd0a99f9	-0.033838246
54	0xbd72cbbc	-0.059276327
55	0xbd66cb60	-0.056346297
56	0x3c5a9aa1	0.0133425305
57	0xbd2465f6	-0.0401363
58	0x3c7e742b	0.015530626
59	0xbc3a3d73	-0.01136719
60	0xbd2a85d0	-0.04163152
61	0x3ad8d9fc	0.0016544457
62	0xbbdc36c2	-0.006720395
63	0xbd18538c	-0.03718905
64	0xbc5e807c	-0.013580438
65	0xbc421a55	-0.011847098
66	0xbc2d4f8f	-0.01057805
67	0x3c1f0fa5	0.00970832
68	0x3cd2c6b0	0.025729507
69	0xbcdd5e3f	-0.02702248
70	0xbcf16427	-0.029466702
71	0xbcd0afdf	-0.025474487
72	0xbd803ba5	-0.06261376
73	0x3b7e4e4b	0.003880399
74	0x3c659df9	0.014014714
75	0xbcd49d4b	-0.02595391
76	0xbc95d4a3	-0.01828987
77	0xbc736ff7	-0.0148582375
78	0xbd32e4b4	-0.04367514
79	0x3c85c2ee	0.016328301
80	0x3cae09b7	0.021244867
81	0xbc85257e	-0.01625323
82	0xbd0af691	-0.03392655
83	0xbcf32e1d	-0.029685074
84	0xbce2f5ff	-0.02770519
85	0x3c776b57	0.015101275
86	0xbd1d4528	-0.03839603
87	0x3cbc4623	0.022982663
88	0xbd4b54b9	-0.049641345
89	0xba799a5a	-0.00095215964
90	0xba8ca26e	-0.001072956
91	0xbd212b25	-0.039347786
92	0x3ce60a67	0.028081132
93	0xbaac3282	-0.0013137611
94	0xbd0de237	-0.034639563
95	0x3c644a8f	0.013933792
96	0xbb049906	-0.002023281
97	0x3c395bc4	0.011313383
98	0xbd1d7869	-0.03844491
99	0xbcfa735a	-0.030572582
100	0x3cba1d17	0.02271895
101	0xbb9930e6	-0.0046750186
102	0xbc021f07	-0.007941968
103	0xbc0f6472	-0.008751975
104	0xbd4ba2e5	-0.049715895
105	0x3c851181	0.016243698
106	0x3c66e7e7	0.014093376
107	0x3d1d2b06	0.03837111
108	0x3d4b5052	0.049637146
109	0x3c9d0895	0.019169131
110	0xbbca537f	-0.0061745043
111	0x3bb75664	0.0055950154
112	0x3ca502b5	0.020142892
113	0xbc0c0a0f	-0.00854732
114	0xbc8472c0	-0.016167998
115	0xbc18c446	-0.009324139
116	0x3d5f92a7	0.054583218
117	0xbc098011	-0.00839235
118	0x3b8cbfb4	0.0042953137
119	0xbd0d68f2	-0.03452391
120	0x3d2c7f40	0.042113543
121	0xbc11d2bb	-0.00890034
122	0xbd2c4eb6	-0.042067252
123	0x3d197920	0.03746903
124	0x3cdc7057	0.026909037
125	0xbd17237e	-0.036899082
126	0xbb8846cf	-0.0041588317
127	0xbbbf537f	-0.005838811
128	0x3d325626	0.04353919
129	0x3d1e414f	0.038636502
130	0x3bee8e91	0.007280179
131	0xbce7711e	-0.02825218
132	0x3cfafb5f	0.030637441
133	0xbc81f180	-0.015862226
134	0xbd082538	-0.03323862
135	0x3d27ede0	0.04099834
136	0x3c840939	0.016117679
137	0x3ce2f427	0.027704312
138	0xbccf59f2	-0.025311444
139	0xbd43c662	-0.047796614
140	0xbbefc32d	-0.007316968
141	0xbd06945f	-0.03285634
142	0x3cb4e700	0.022082806
143	0xbcdb0f61	-0.026740732
144	0xbac15ae8	-0.0014751824
145	0x3b651d38	0.0034960043
146	0xbca6d295	-0.020364085
147	0xbcb030ec	-0.021507703
148	0x3d0dd639	0.034628127
149	0xbce53ab4	-0.027982093
150	0x3d132cb5	0.035931308
151	0xbb240795	-0.0025028933
152	0x3a957b38	0.001140452
153	0xbc50f908	-0.012754686
154	0xbc7d134b	-0.015446494
155	0x3cdedb3a	0.027204145
156	0x3c9b2860	0.01894015
157	0xbd041a0d	-0.032251406
158	0xbd2b3e88	-0.04180768
159	0x3c4415f3	0.011968124
160	0x3c949200	0.018136024
161	0xbd30b12f	-0.043137725
162	0xbcc30b2c	-0.023809038
163	0x3c84041d	0.016115243
164	0x3bf73feb	0.0075454614
165	0xbc0b4b05	-0.008501773
166	0x3c471223	0.01215032
167	0xbae3db2e	-0.0017384046
168	0x3bf2ff78	0.007415708
169	0x3c4b63f9	0.012413972
170	0x3bc35b30	0.005961798
171	0x3c783936	0.015150359
172	0xbd0d84df	-0.034550544
173	0xbd4d6b05	-0.05015089
174	0x3b911cbc	0.004428474
175	0xbc866ab2	-0.016408298
176	0xbaf65daf	-0.001879623
177	0xbcacb980	-0.021084547
178	0xbd21ab82	-0.039470203
179	0xba8c795f	-0.0010717324
180	0xbc863346	-0.016381871
181	0xbd09bcca	-0.03362731
182	0xbc600453	-0.013672906
183	0x3cb7a87f	0.022419212
184	0x3cd6a5a2	0.026202027
185	0xbc67946a	-0.014134506
186	0x3d32edf1	0.04368395
187	0x3cb8034e	0.022462513
188	0xbd0ed32b	-0.034869354
189	0x3d3df750	0.046378434
190	0x3c5b7a32	0.013395833
191	0x3b939645	0.0045039975
192	0x3d0c41b9	0.034242366
193	0xbb1e1317	-0.0024120265
194	0xbbce8591	-0.0063025435
195	0x3d3af71f	0.04564583
196	0xbc81bae5	-0.015836189
197	0xbb59e5a0	-0.003324844
198	0xbba3bb9e	-0.004996731
199	0x3d18ddac	0.037320778
200	0x3ccb8a43	0.024846202
201	0xb92c0a3b	-0.0001640701
202	0x3d406c5c	0.04697834
203	0xbbfd0656	-0.0077217026
204	0xbcba8292	-0.022767339
205	0x3c7803c6	0.015137618
206	0x3c08e775	0.008355965
207	0xbc9af9de	-0.018917974
208	0x3cbac274	0.0227978
209	0xbd293145	-0.041306753
210	0xbd291090	-0.04127556
211	0x3c9080c3	0.017639523
212	0xbc361a6e	-0.0111147
213	0x3b56a225	0.0032750454
214	0xbc4fde62	-0.012687298
215	0x3b252778	0.0025200527
216	0x3c5b4004	0.013381962
217	0x3c834bf4	0.016027428
218	0x3d196957	0.037453976
219	0xbb7223f2	-0.0036947695
220	0x3ca9915b	0.020699194
221	0xbc55559c	-0.013020899
222	0x3a4e89df	0.0007878821
223	0x3ae7945f	0.0017668119
224	0xbbc2d19d	-0.005945398
225	0x3cbb44e1	0.022859992
226	0xbcc5456e	-0.024080958
227	0xbc8994ba	-0.016794551
228	0x3d28de5a	0.041227676
229	0x3c9cd683	0.019145256
230	0x3a00a0b4	0.0004906759
231	0x3d03e515	0.03220089
232	0xbcac43c8	-0.021028414
233	0x3d461654	0.048361138
234	0xbcdcfbf8	-0.026975617
235	0x3c960512	0.018312965
236	0xbb8cf86c	-0.004302075
237	0x3d3bcb03	0.045847904
238	0x3d38053e	0.044926874
239	0x3d27879d	0.040900815
240	0x3c612713	0.013742226
241	0x3d22b160	0.03971994
242	0x3b79227b	0.0038014937
243	0x3bd6f551	0.0065600057
244	0x3cedd1ed	0.029030764
245	0xbc92a159	-0.017899202
246	0x3b8d2573	0.004307443
247	0x3c72cf13	0.014819878
248	0x3d411e36	0.047147952
249	0x3d53fd8e	0.05175548
250	0x39795b5f	0.00023780529
251	0xb8d1c1ea	-0.00010002016
252	0x3d3de492	0.04636056
253	0xbc1cf92b	-0.009580891
254	0x3d33d515	0.043904383
255	0x3cc1dcdf	0.02366489

features.2.bias f4 [64]
0	0x3c40c3ad	0.011765403
1	0xbcbe60b3	-0.02323947
2	0xbd22cd5e	-0.039746635
3	0x3c51b579	0.012799614
4	0x3c32dff1	0.01091765
5	0x3d1466c6	0.036230825
6	0xbd008afa	-0.03138254
7	0xbc3aa821	-0.011392624
8	0xbc1e1383	-0.009648207
9	0x3cf0e9a0	0.029408276
10	0x3c9aec0d	0.018911386
11	0x3d15dc9c	0.036587343
12	0x3c3876f2	0.0112588275
13	0x3c579bc4	0.013159696
14	0x3c959575	0.018259743
15	0x3b876af2	0.004132622
16	0x3cf0241c	0.029314093
17	0xbb923a99	-0.004462552
18	0x3ce69a0e	0.02814963
19	0xbb5bc2fd	-0.003353297
20	0x3d1aa942	0.037759073
21	0xbc40a1ae	-0.011757297
22	0xbcde9c1a	-0.027174044
23	0xbc326e77	-0.010890595
24	0x3c9a6504	0.018846996
25	0xbc3c6881	-0.011499525
26	0xbcbefcd6	-0.023313921
27	0xbc511129	-0.012760439
28	0xbcd1ef60	-0.025626838
29	0xbc8d8bc4	-0.01727856
30	0xbd08ed06	-0.03342917
31	0x3cb8a4d0	0.022539526
32	0xbbea3bee	-0.0071482575
33	0x3d05b406	0.032642387
34	0xbce5ee63	-0.028067773
35	0xbcdda8f8	-0.02705811
36	0x3d010bf4	0.03150554
37	0xbd11619a	-0.03549347
38	0xbd25af3d	-0.040450323
39	0xbca5468a	-0.020175237
40	0x3d0ada69	0.0338997
41	0xbcea1813	-0.028575933
42	0xbaeb1511	-0.0017935355
43	0xbc2834bd	-0.01026648
44	0xbc9536c4	-0.01821459
45	0xbbb16e7b	-0.0054147816
46	0x3b17e717	0.0023178512
47	0xbb27dc26	-0.0025613396
48	0xbcd313a7	-0.025766207
49	0xbd01bfac	-0.031676933
50	0x3c8cc222	0.017182413
51	0x3d059386	0.032611392
52	0xbcb9c951	-0.022679003
53	0x3ce9dc60	0.028547466
54	0xbcf5bfde	-0.029998716
55	0xbc3286ab	-0.010896365
56	0x3ad83d23	0.0016497712
57	0xbccae646	-0.024768006
58	0xbce948ed	-0.028477157
59	0x3ca39669	0.019969182
60	0x3a9c0410	0.0011903066
61	0xbbd23efe	-0.0064162007
62	0xbca7022c	-0.020386778
63	0xbce4f934	-0.02795086

features.5.weight f4 [64, 64, 3, 3]
0	0x3d2a1861	0.041527156
1	0x3d125c0f	0.035732325
2	0x3d4ddcb5	0.05025931
3	0x3cc35a0c	0.023846649
4	0x3bd47814	0.006484041
5	0x3d54e1b3	0.051973056
6	0xbcb61f04	-0.022231586
7	0x3afdd4c4	0.0019365777
8	0xb9d9632d	-0.00041463357
9	0x3d1e38d0	0.0386284
10	0xbbf0c7e4	-0.0073480476
11	0xbcc6834b	-0.024232527
12	0x3cf71cc1	0.030165078
13	0xbd1fbe7c	-0.03900002
14	0x3d25608c	0.040375277
15	0xbcc59b3d	-0.024121875
16	0xbd047ab4	-0.03234358
17	0xbcee963a	-0.029124368
18	0x3c0b98a8	0.008520283
19	0xbc9a6a77	-0.018849595
20	0x3c2a9b80	0.010413051
21	0xbc9e501e	-0.019325312
22	0x3d446ab0	0.047953308
23	0xbcd1a33c	-0.025590532
24	0x3b3888a0	0.0028157607
25	0xbac4b1b7	-0.0015006576
26	0x3c32477a	0.010881299
27	0x3c10076b	0.008790831
28	0xbc6211ef	-0.013798221
29	0xbb0f95b0	-0.002190929
30	0xbd30b57e	-0.043141834
31	0x3bf33070	0.0074215457
32	0x3d0ca192	0.034333773
33	0xbcea34a8	-0.028589562
34	0xbceeebb0	-0.029165119
35	0x3cf9fae3	0.03051514
36	0xbcde57a9	-0.027141409
37	0xbbb5d571	-0.005549126
38	0x3a24a74f	0.00062810344
39	0x3d07dfb0	0.03317231
40	0x3d450585	0.048100967
41	0xbbae11b9	-0.0053121713
42	0x3cab5514	0.020914592
43	0xbb95f2a9	-0.0045760465
44	0xbb106870	-0.0022034906
45	0x3d09468c	0.033514544
46	0x3d3b361b	0.045705896
47	0x3cdbd19a	0.026833344
48	0x3b918880	0.004441321
49	0xbb5bd75d	-0.0033545115
50	0x3d342c16	0.043987356
51	0x3ca1946d	0.019724095
52	0xbcc5fa5c	-0.024167232
53	0xbc1ff89b	-0.009763862
54	0x3d0d48f5	0.034493405
55	0x3d1d5aad	0.038416553
56	0x3d23243e	0.039829485
57	0xbcafa8a4	-0.021442719
58	0x3ca30431	0.01989946
59	0xbce8098a	-0.028324861
60	0xbd0c45e9	-0.03424636
61	0x3cccac1d	0.024984414
62	0x3a9549b5	0.0011389764
63	0xbc434bdc	-0.011919942
64	0xbcd9ae79	-0.026572453
65	0x3cec63bc	0.02885615
66	0x3bb012e5	0.005373346
67	0xbd09139b	-0.033465963
68	0x3be0c329	0.0068592024
69	0x3cc7cedb	0.024390629
70	0x3cd75dc5	0.02628983
71	0x3d3257c4	0.04354073
72	0x3cc2f261	0.023797216
73	0xbb918420	-0.0044407994
74	0x3d2a8d92	0.04163892
75	0x3d505097	0.050858106
76	0x3d0bb19d	0.034104932
77	0xbc0cfb80	-0.008604884
78	0xbd0179a3	-0.031610142
79	0xbcbe828d	-0.02325561
80	0xbcca7b29	-0.02471693
81	0x3d1bf5cf	0.03807622
82	0x3bf7dd1d	0.0075642006
83	0x3d31f9f7	0.043451276
84	0x3b825314	0.003977189
85	0x3ca30f7c	0.019904844
86	0x3c63fcc5	0.013915245
87	0x3bcce9d6	0.0062534614
88	0x3d3f0c93	0.04664285
89	0xbc5fb1aa	-0.013653198
90	0x3bdb3f21	0.006690875
91	0xbc0a0ebc	-0.0084263645
92	0x3d0615be	0.03273558
93	0xbc49afa1	-0.01230994
94	0x3c1ecb72	0.00969206
95	0xbb968539	-0.004593518
96	0x3c8f1211	0.01746467
97	0x3d20c4af	0.039250072
98	0x3c928ab7	0.01788841
99	0x3cff8c03	0.031194692
100	0x3c57359a	0.013135338
101	0x3c97a0e3	0.018509334
102	0x3d42e4b1	0.04758138
103	0x3d2f68b3	0.04282446
104	0x3cc668ca	0.02421989
105	0x3d4faa3e	0.050699465
106	0x3d3a3d5d	0.045468677
107	0x3c242b1d	0.010020045
108	0xbc2d0aee	-0.010561688
109	0xbca1c24d	-0.01974597
110	0x3b73bad0	0.0037190206
111	0xbc883a6c	-0.01662942
112	0xbcec25f4	-0.028826691
113	0x3d369ac3	0.044581186
114	0xbc2d2054	-0.01056679
115	0xbcb82427	-0.022478176
116	0x3d3509a1	0.044198636
117	0x3c605f92	0.013694661
118	0xbbd7e9cb	-0.0065891496
119	0x3d23b9bb	0.03997205
120	0x3d058b02	0.03260327
121	0xbc1fa0a2	-0.009742888
122	0xbc9fbeb4	-0.019500114
123	0x3d20002f	0.039062675
124	0x3cf7e8bd	0.030262345
125	0xbcb2f145	-0.021843562
126	0x3cbcc000	0.023040771
127	0x3a151a34	0.00056878035
128	0x3d0c8106	0.034302734
129	0x3bd66343	0.0065425946
130	0x3c1c921d	0.0095563205
131	0xbcd5be65	-0.026091764
132	0x3cf4732a	0.02984007
133	0x3d5203ae	0.05127304
134	0x3d3fcf42	0.046828516
135	0xbc46411d	-0.012100485
136	0x3d4937af	0.04912537
137	0xbc36dbb1	-0.011160777
138	0x3cc20f36	0.023688894
139	0x3cf39e7b	0.029738655
140	0x3d31a1ab	0.04336707
141	0xbc40f848	-0.011777945
142	0x3d36ddcd	0.04464512
143	0x3d0a7769	0.033805285
144	0x3d27c19e	0.040956132
145	0xbc08f99e	-0.008360295
146	0x3c1cf0ae	0.009578867
147	0x3d3e4f0f	0.046462115
148	0xbca29516	-0.01984648
149	0x3b1e37f5	0.002414224
150	0xbcc6248c	-0.024187349
151	0xbcd13597	-0.025538249
152	0x3c007c60	0.007842153
153	0x3cd9122f	0.026497928
154	0xbd2c62a9	-0.042086277
155	0x3cc7763c	0.02434837
156	0x3cc57a26	0.024106096
157	0xbd044cfb	-0.032299977
158	0x3c84b812	0.016201053
159	0x3d155c0f	0.036464747
160	0x3be9a203	0.007129909
161	0x3c072022	0.008247407
162	0xbbbd8a97	-0.0057843435
163	0xbcbed1bf	-0.023293374
164	0xbbc62971	-0.0060474207
165	0xbcf01c1a	-0.029310275
166	0xbbbb866c	-0.0057228114
167	0xbcaa263d	-0.020770187
168	0xbcca9711	-0.024730237
169	0x39272d70	0.00015943288
170	0xbcae6c13	-0.021291768
171	0xbc09ffff	-0.008422851
172	0x3cdd1099	0.026985453
173	0x3c031bde	0.0080022495
174	0xbd2421e4	-0.040071383
175	0x3bfd349e	0.0077272197
176	0x3c490d2f	0.01227121
177	0xbd2fa71d	-0.04288398
178	0xbd164d00	-0.036694527
179	0x3c909b16	0.017652076
180	0x3d02d11e	0.03193771
181	0x3c3e335b	0.011608924
182	0xbb0080b3	-0.001960796
183	0x3cbf80c2	0.023376826
184	0x3d25de9e	0.040495507
185	0xbc203a95	-0.009779592
186	0xbccbdaf2	-0.024884675
187	0xbd1a2120	-0.037629247
188	0xbd29394f	-0.04131442
189	0xbc89d766	-0.016826343
190	0x3cffdef8	0.03123425
191	0xbc4dbff5	-0.012557973
192	0x3c677d16	0.014128944
193	0x3d21bc67	0.039486315
194	0x3c80bae5	0.015714118
195	0xbcd3ecef	-0.025869815
196	0xbb8e3b3a	-0.0043405565
197	0xbc45f431	-0.012082146
198	0xbba75a5c	-0.005107207
199	0x3cbd9ee5	0.023147056
200	0x3c1bca66	0.009508705
201	0xbcae123f	-0.021248935
202	0xbc19adbf	-0.009379803
203	0x3c925f14	0.017867602
204	0x3d2b89fe	0.041879646
205	0xbcb37aa3	-0.021909064
206	0x3d306476	0.043064557
207	0x3d61e948	0.055154115
208	0x3c19264d	0.0093475105
209	0x3d03e1ec	0.032197878
210	0x3d29585e	0.04134404
211	0xbc8820be	-0.016617175
212	0xbccb2514	-0.024797954
213	0x3aee0b7e	0.0018161384
214	0xbcc747cd	-0.02432623
215	0xbc200f9b	-0.009769346
216	0x3c8798ae	0.016552296
217	0xbc278a60	-0.010225862
218	0x3c146f63	0.00905976
219	0x3d47fef5	0.04882713
220	0x3bf97fab	0.007614096
221	0xbce69a4b	-0.028149744
222	0xbc317e5d	-0.01083335
223	0xbcb3cd17	-0.02194838
224	0xbc928d81	-0.01788974
225	0xbcd5bb3c	-0.026090257
226	0x3d44ba8c	0.048029467
227	0x3d220865	0.039558787
228	0x3cf4d8f7	0.029888613
229	0x3ca4b6f9	0.02010678
230	0xbb9fc083	-0.004875244
231	0x3d29ab53	0.041423153
232	0x3c926485	0.017870197
233	0x3d0e8c59	0.034801815
234	0x3c1d08ad	0.009584588
235	0xbb7ac370	-0.0038263462
236	0x3d2247db	0.039619308
237	0xbc903039	-0.01760112
238	0x3cb814dd	0.022470886
239	0x3bdd41d4	0.006752232
240	0x3d1227ed	0.035682607
241	0xbbd7c9dc	-0.006585343
242	0xbc7776b1	-0.015103982
243	0x3d27529f	0.040850278
244	0x3b3b9839	0.0028624667
245	0x3cc6d376	0.024270754
246	0xbc1b57c6	-0.009481376
247	0x3c2f81eb	0.010712127
248	0xbcc1ec78	-0.023672327
249	0x3d08890f	0.033333834
250	0xbcb74a5e	-0.022374328
251	0xb98128e6	-0.0002463527
252	0x3c2e7fae	0.010650558
253	0x3b33d43e	0.0027439739
254	0x3cfd0806	0.030887615
255	0xbcc1044e	-0.023561623

features.5.bias f4 [64]
0	0x3d21728f	0.039415892
1	0x3abd4c24	0.0014442247
2	0x3cfc2bc4	0.030782588
3	0xbd177656	-0.03697809
4	0xbc0a9c7e	-0.008460162
5	0xba02fd60	-0.0004996862
6	0xbc793b0b	-0.015211831
7	0xbcbffc89	-0.023435848
8	0xbc002095	-0.007820268
9	0x3c8765a5	0.01652796
10	0x3c823643	0.015895015
11	0x3c7592d6	0.014988622
12	0xbc3fbc05	-0.011702542
13	0x3c66211f	0.014045983
14	0xbd4fa874	-0.05069776
15	0x3d26d052	0.040726013
16	0xbcef9d36	-0.029249769
17	0xbcec2ba9	-0.028829413
18	0xbc9be1ee	-0.01902863
19	0xbcb34add	-0.021886284
20	0x3cac0b85	0.021001587
21	0x3c5e0304	0.013550524
22	0xbd19f3e4	-0.037586108
23	0xbcaeff4d	-0.021361971
24	0xbc850ae2	-0.01624054
25	0x3c0e813a	0.008697802
26	0x3c8cfa69	0.017209249
27	0xbd0266fc	-0.031836495
28	0xbcb87f0b	-0.022521516
29	0xbce5cf7e	-0.028053042
30	0xbcd48155	-0.025940577
31	0xbc6a90a3	-0.014316711
32	0xbcd6fb66	-0.026242923
33	0xbc470ae3	-0.012148592
34	0x3b272bd0	0.0025508292
35	0xbc5ce045	-0.013481204
36	0x3c2ed9fa	0.010672087
37	0x3c96696b	0.018360814
38	0x3d3ad582	0.045613773
39	0xbd1fc251	-0.039003674
40	0xbbc0240f	-0.0058636735
41	0x3c9a5046	0.018837105
42	0x3d2b4ee0	0.041823268
43	0xbbbabc25	-0.005698698
44	0x3ba04b92	0.004891821
45	0x3c82990a	0.015942115
46	0xbc664c09	-0.014056214
47	0x3cfd3f85	0.030914078
48	0x3c936adc	0.01799529
49	0x3bdd05fe	0.006745099
50	0xbadb2706	-0.0016720004
51	0xbd1a17ee	-0.037620477
52	0x3ce257d3	0.027629768
53	0x3ce8b01e	0.028404292
54	0x3be85df0	0.0070912763
55	0x3ce6b98a	0.028164644
56	0x3d20b3e8	0.039234072
57	0x3d4a7db9	0.049436305
58	0x3bbecc90	0.0058227256
59	0xbce642ea	-0.028108079
60	0x3c62acaa	0.013835112
61	0xbbbfb33c	-0.005850224
62	0x3acfa490	0.001584189
63	0x3b9d12cd	0.004793501

features.7.weight f4 [64, 64, 3, 3]
0	0x3b847e4a	0.004043375
1	0xbd3b6658	-0.0457519
2	0xbc6a298f	-0.014292135
3	0xbcf910d2	-0.030403528
4	0xbc8533e5	-0.016260097
5	0x3cf5720a	0.029961605
6	0xbb897248	-0.0041945316
7	0x3c001740	0.007818043
8	0xbd043ec0	-0.032286406
9	0xbbda9960	-0.0066711158
10	0x3b94bcdf	0.0045391168
11	0xbb571980	-0.0032821596
12	0xbce90821	-0.028446259
13	0x3c818e26	0.015814852
14	0x3d2522a2	0.04031623
15	0x3d06f285	0.03294613
16	0x3bcbd9c9	0.0062210304
17	0x3d2dbedf	0.042418357
18	0x3d474589	0.0486503
19	0x3cf4680c	0.02983477
20	0xbb510889	-0.0031895956
21	0x3d003d6c	0.031308576
22	0x3cd12da1	0.025534453
23	0x3cb6f039	0.022331344
24	0xbbe719d2	-0.0070526386
25	0xbbf3cf5e	-0.0074404916
26	0xbd16ed8b	-0.036847632
27	0xbc36a654	-0.011148054
28	0x3d1bfa05	0.038080234
29	0xbb4de601	-0.003141761
30	0x3d0999b4	0.03359385
31	0x3cb6b61a	0.02230363
32	0xbc72670c	-0.014795076
33	0xbcab977f	-0.020946262
34	0x3c4a8516	0.012360832
35	0x3d083dc0	0.033262014
36	0xbca1a942	-0.019734029
37	0x3c7d60b0	0.015464947
38	0xbc33c7c6	-0.010972923
39	0x3b325b36	0.002721501
40	0x3d31f220	0.0434438
41	0x3c807c23	0.015684193
42	0xbd1f8405	-0.038944263
43	0xbc574194	-0.013138194
44	0xbc34ad1c	-0.011027601
45	0x3a9c6c4f	0.0011934134
46	0x3b13a48f	0.0022528504
47	0x3b574b6b	0.003285135
48	0xbd27ac2a	-0.040935673
49	0xbc9e94d8	-0.019358084
50	0xbcea8799	-0.028629111
51	0xbc597cf2	-0.013274418
52	0x3d1a06b0	0.037604034
53	0xbce0feb0	-0.027465194
54	0x3cb8fefe	0.022582527
55	0x3c19bd96	0.00938358
56	0x3c84c1f5	0.016205767
57	0x3c3ef87f	0.011655926
58	0xbcde9c1a	-0.027174044
59	0xbca77981	-0.02044368
60	0x3cf7de8b	0.030257484
61	0x3b2fbb2b	0.0026814442
62	0x3c094c42	0.008379998
63	0x3ca6acdf	0.020346103
64	0xbc564d93	-0.013080019
65	0x3c9d6cd8	0.01921694
66	0x3a05d0e5	0.0005104675
67	0xbd117717	-0.035513964
68	0x3cb0e0d8	0.021591589
69	0x3cbd7582	0.023127321
70	0xbb881599	-0.0041529653
71	0x3c04c015	0.008102437
72	0xbc3bfd87	-0.01147402
73	0xbb05dbb0	-0.0020425133
74	0x3b030b79	0.0019995852
75	0x3cff5f71	0.03117344
76	0xbc1ecedd	-0.009692875
77	0xbd13b818	-0.036064237
78	0xbca41eb3	-0.02003417
79	0x3cc9f85a	0.024654556
80	0x3ba0889c	0.0048990976
81	0x3cb50657	0.02209775
82	0xbc86d473	-0.016458726
83	0x3d149bae	0.03628128
84	0xbc3350ec	-0.010944586
85	0x3c136b1b	0.008997704
86	0xbaf37887	-0.0018575349
87	0xbca0c7dc	-0.01962655
88	0xbd058d79	-0.032605622
89	0xbc379a86	-0.011206275
90	0xbd029f36	-0.031890117
91	0xbcb6492e	-0.022251692
92	0x3be908a9	0.007111628
93	0xbc76adaa	-0.015056053
94	0x3c8feef1	0.01756999
95	0xbc0fe582	-0.008782746
96	0x3ba36262	0.0049860934
97	0x3cb17ea6	0.021666836
98	0xbcff88f7	-0.03119324
99	0xbbd47f90	-0.006484933
100	0xbbd8c255	-0.006614963
101	0x3d0c3e7e	0.034239285
102	0xbce4068c	-0.027835153
103	0xbc199b6a	-0.0093754325
104	0x3cb36fec	0.021903954
105	0xba085acb	-0.00052015175
106	0xbc3640f1	-0.011123882
107	0xbc95b90a	-0.01827671
108	0xbc49060b	-0.012269507
109	0x3c2d710f	0.010586037
110	0xbcb9ca8a	-0.022679586
111	0x3c911470	0.01770994
112	0xbb835d80	-0.004008949
113	0xbd1f871c	-0.03894721
114	0xbcf0e56d	-0.029406274
115	0x3ab6ecb0	0.0013956036
116	0x3c8ff03d	0.01757061
117	0x3c2aa983	0.010416391
118	0xbd1c4692	-0.03815324
119	0xbcf7dfcf	-0.030258087
120	0xbd17033d	-0.036868323
121	0xbcff4df6	-0.031165104
122	0xbc9e7446	-0.019342553
123	0xbca417b2	-0.02003083
124	0x3bc1ca94	0.005914042
125	0x3c94d2de	0.018166956
126	0xbc96f56a	-0.01842757
127	0xbd21a3f4	-0.039463
128	0xbc40d9b9	-0.011770659
129	0x3cc5804b	0.024109026
130	0xbcd5d38e	-0.026101854
131	0xbc982396	-0.018571656
132	0xbc91cfe3	-0.017799323
133	0xbc4b5c30	-0.012412116
134	0xbca750eb	-0.020424327
135	0x3d07caaa	0.03315226
136	0x3d0c111e	0.03419601
137	0x3d23b8dd	0.03997122
138	0xbca91cf1	-0.020643683
139	0xbcc38e61	-0.023871602
140	0xbd1ad922	-0.03780473
141	0x3bdf3423	0.006811635
142	0xbcaa954b	-0.020823142
143	0xbd3194db	-0.04335485
144	0xbbfcfb86	-0.0077204136
145	0xbc3d5cf6	-0.011557808
146	0x3c5e8229	0.013580837
147	0xbc8bbf2a	-0.017058928
148	0xbceed23d	-0.029152984
149	0xbcef083b	-0.02917873
150	0x3d134c72	0.035961576
151	0x3cc96e53	0.02458874
152	0xbce7c69c	-0.028292947
153	0x3d1d2b88	0.038371593
154	0x3d062fa0	0.032760262
155	0x3c783f70	0.015151843
156	0x3b0226e6	0.001985961
157	0x3cad66dd	0.021167213
158	0x3c4ca240	0.012489855
159	0x3d2898a3	0.04116119
160	0xbaf8fdd6	-0.0018996547
161	0xbce4dd90	-0.02793768
162	0x3d140b96	0.03614386
163	0x3d1db35a	0.03850112
164	0xbbede045	-0.007259401
165	0x3cbc97f6	0.02302168
166	0x3c58729f	0.013210922
167	0xbd07ac4f	-0.03312331
168	0xbc4fd462	-0.012684913
169	0xbcd305d1	-0.02575961
170	0xbcf93d33	-0.03042469
171	0x3cd1f7b3	0.025630808
172	0x3d182da4	0.0371529
173	0xbd20a9af	-0.039224323
174	0xbc8394b6	-0.016062122
175	0x3cf1effa	0.029533375
176	0xbd0d2e3d	-0.034467924
177	0x3c388248	0.01126153
178	0xbb06c7ae	-0.0020565796
179	0xbd10a79f	-0.035316106
180	0xb9b37490	-0.00034228386
181	0xbbce3455	-0.0062928596
182	0xbc056f41	-0.008144201
183	0x3cb43d06	0.022001754
184	0x3c739f77	0.014869562
185	0x3c169705	0.009191279
186	0xbc8bab58	-0.017049477
187	0x3c8c84a8	0.0171531
188	0xbc14c490	-0.009080067
189	0xbb354b16	-0.0027663163
190	0xbce166c9	-0.027514832
191	0xbd15b384	-0.036548153
192	0x3c6a03c4	0.014283124
193	0xbc730834	-0.014833499
194	0x3c4c0e47	0.012454576
195	0xbc3488a4	-0.011018906
196	0xbc9cc2a3	-0.019135779
197	0xbc8f2ad7	-0.017476482
198	0x3d2b9985	0.041894455
199	0x3ba1fd70	0.004943542
200	0x3b986b43	0.0046514585
201	0x3cdc492a	0.026890356
202	0xbcaceebf	-0.021109937
203	0x3d1367f7	0.03598782
204	0x3cf7d7d9	0.030254291
205	0x3c373edb	0.0111844195
206	0x3d2c0c1f	0.042003747
207	0x3d22f247	0.039781835
208	0x3c931339	0.017953502
209	0xbc799e04	-0.015235428
210	0x3bd79f11	0.0065802415
211	0xbca68f5a	-0.020332027
212	0xbd30d56f	-0.043172296
213	0x3c9b0cb0	0.018926948
214	0xbc3b415f	-0.01142916
215	0xbc4f7c55	-0.01266392
216	0xbc83d620	-0.016093314
217	0x3c183e40	0.009292185
218	0xbcbc41b0	-0.022980541
219	0xbc0624ac	-0.008187454
220	0xbc350125	-0.011047636
221	0xba166a74	-0.00057379087
222	0x3c8db10b	0.017296335
223	0xbd14e3fb	-0.03635023
224	0xbd2a05ee	-0.04150956
225	0xb9f96bd9	-0.00047573334
226	0x3caa2419	0.020769166
227	0xbcba4c71	-0.022741528
228	0x3bf6b775	0.007529194
229	0x3c99a378	0.018754706
230	0xbce2a410	-0.027666122
231	0xbd059616	-0.032613836
232	0xbcff8218	-0.031189963
233	0x3cf46cc8	0.029837027
234	0x3b4093c3	0.0029384948
235	0x3c628e80	0.01382792
236	0xbcc6275f	-0.024188695
237	0xbc8e1d05	-0.017347822
238	0x3c543c72	0.012953864
239	0xbcf35df2	-0.029707883
240	0x3b5504b7	0.003250403
241	0x3bcf97b7	0.0063352245
242	0xbcf60e6f	-0.03003618
243	0xbb7a52c9	-0.0038196316
244	0xbb747a32	-0.003730428
245	0xbcebaabf	-0.028767942
246	0x3c3130c1	0.0108148465
247	0x3c0dc344	0.008652512
248	0x3bf9475e	0.0076073846
249	0x3c1bf328	0.009518422
250	0xbc98fb6e	-0.018674579
251	0xbbf324d3	-0.0074201613
252	0xbb8cae11	-0.0042932113
253	0x3d24accd	0.04020386
254	0x3cd0a334	0.025468446
255	0xbb375ab2	-0.0027977643

features.7.bias f4 [64]
0	0xbc722763	-0.014779898
1	0x3c9e6ec5	0.019339928
2	0x3d195dd7	0.03744301
3	0xbd45efed	-0.048324514
4	0xbc6e5ad9	-0.014548027
5	0xbc34dd43	-0.011039081
6	0xbc164417	-0.009171507
7	0x3cc4cf7c	0.024024718
8	0xbc289246	-0.010288781
9	0xbd189200	-0.03724861
10	0xbc6b7927	-0.014372147
11	0xbc44f5c5	-0.012021487
12	0xbcabd831	-0.020977112
13	0xbcb1cb3d	-0.021703357
14	0x3ba7ff46	0.0051268665
15	0x3aa6bd3a	0.0012721189
16	0xbd1f3d69	-0.038876925
17	0xbcb7a954	-0.02241961
18	0xbd460272	-0.048342176
19	0x3c6662f0	0.0140616745
20	0xbd0f114a	-0.034928598
21	0xbac9ea8c	-0.0015404983
22	0x3cb8ccaa	0.022558529
23	0x3ad9f0d2	0.0016627556
24	0x3a01a548	0.00049455883
25	0x3c935712	0.017985854
26	0xbd02bdb5	-0.0319192
27	0xbd2fa821	-0.04288495
28	0xbd1da4b2	-0.038487144
29	0x3c5bffff	0.013427733
30	0xbcfcb3c2	-0.030847434
31	0xbcef6396	-0.029222291
32	0x3c091121	0.0083659
33	0x3c92f2a0	0.017937958
34	0xbd32ba72	-0.04363484
35	0xbd444d9c	-0.047925577
36	0x3cd14a77	0.025548203
37	0x3c0f5537	0.008748344
38	0xbccccd90	-0.025000364
39	0xbccfc9bd	-0.025364751
40	0xbd256eaa	-0.04038874
41	0x3d16d748	0.036826402
42	0xbcb8fc15	-0.02258114
43	0xbd005bcb	-0.03133754
44	0x3c6e316f	0.014538153
45	0xbc04a54b	-0.00809605
46	0x3b822682	0.0039718756
47	0xbca78d55	-0.020453135
48	0xbb621a94	-0.0034500705
49	0x3becbe2d	0.007224819
50	0x3ce2a1bf	0.027665017
51	0xbd14e6fa	-0.03635309
52	0xbd3fbeea	-0.04681293
53	0xbbff931e	-0.00779952
54	0xbd41513c	-0.04719661
55	0x3c817a85	0.015805492
56	0x3c5d55b8	0.0135092065
57	0x3cea7a8a	0.028622884
58	0x3b762858	0.0037560668
59	0xbcd0f42a	-0.025507051
60	0x3ada9222	0.0016675631
61	0x3c9c0a09	0.019047754
62	0x3c8d0f58	0.01721923
63	0xbcb8c688	-0.022555605

classifier.1.weight f4 [5, 16384]
0	0x3b07d513	0.0020726367
1	0xbc485edc	-0.0122296475
2	0x3b136523	0.0022490702
3	0x3c80afbe	0.0157088
4	0x3beb6141	0.0071832244
5	0x3935e22e	0.00017345764
6	0x3bf27c8e	0.007400102
7	0xbabcc8dc	-0.0014403122
8	0x3b813e84	0.00394422
9	0xbb801a58	-0.0039093904
10	0x3c3e0bae	0.011599464
11	0x3bf6d355	0.007532517
12	0x3c1ddc1c	0.009634998
13	0x3bed945d	0.0072503523
14	0x3a2d133a	0.0006602291
15	0x3b5984e7	0.0033190788
16	0x3c42a885	0.0118809985
17	0x3c1a5488	0.009419568
18	0x3b4c8ede	0.0031213085
19	0x3c0ac594	0.008469958
20	0x3c5f7aaa	0.013640085
21	0x3c5cf04e	0.0134850275
22	0x3c5107cf	0.012758209
23	0x3b648e69	0.0034874922
24	0x3a646a8c	0.00087133865
25	0x3c450e14	0.012027282
26	0x3c2b679b	0.010461713
27	0x3a95b820	0.0011422671
28	0x3c272afa	0.0102031175
29	0x3c25160b	0.010076056
30	0x3bc51e25	0.0060155564
31	0xbbc7eb20	-0.006101027
32	0x3c4bce88	0.012439378
33	0xba7b33ae	-0.0009582591
34	0x3c7269fa	0.014795775
35	0xbb3231de	-0.0027190368
36	0xbb709bd3	-0.0036713972
37	0x3c40c425	0.0117655145
38	0x3bb77c71	0.0055995514
39	0xbbaee611	-0.0053374846
40	0x3c13c5e9	0.009019353
41	0x3ba11901	0.004916311
42	0xbb2d0336	-0.002639962
43	0x38c4c388	9.382429e-05
44	0xbabef1ed	-0.0014567949
45	0x3b74a290	0.003732834
46	0x3c2fa9f1	0.0107216695
47	0xbcac4854	-0.021030582
48	0x3b981985	0.004641714
49	0x3c1bfed6	0.009521207
50	0x3c08072c	0.008302491
51	0x3b31e0ce	0.002714205
52	0x3bf548ab	0.0074854693
53	0x3c15d8dc	0.009145942
54	0x3be9ce58	0.007135194
55	0xbaf3ba74	-0.0018594996
56	0xbb651898	-0.0034957286
57	0x3c0aeaeb	0.00847886
58	0x3be63d8d	0.0070263804
59	0xbc31cb8f	-0.010851755
60	0xbb0bad55	-0.002131303
61	0x3a0f12a6	0.0005457796
62	0x3bf8d178	0.00759333
63	0x3c8643a4	0.016389675
64	0x3bc30f63	0.005952762
65	0x3befb3eb	0.007315149
66	0x3a6073bb	0.0008562167
67	0x3b6a074a	0.003570991
68	0x3b8c7d54	0.004287401
69	0x3c81158e	0.015757348
70	0x3bbb2dff	0.0057122703
71	0xbc3285ce	-0.010896159
72	0x3c4c6f56	0.012477716
73	0x3bd58030	0.0065155253
74	0x3b6cb494	0.0036118375
75	0xbab7b7a3	-0.001401652
76	0x3bac24a4	0.0052533913
77	0x3c8be52f	0.017077057
78	0xba4715db	-0.0007594504
79	0x3ae4f714	0.0017468655
80	0xbb04879b	-0.0020222429
81	0x3c5db58b	0.013532053
82	0xba5c7df8	-0.0008411105
83	0x3c014ac2	0.007891359
84	0x3bd6a2b4	0.0065501574
85	0x3bdbaef9	0.006704208
86	0x3b08a8c9	0.0020852557
87	0x3bf71f0e	0.007541544
88	0xbc0bf478	-0.008542173
89	0xbbb5f53f	-0.0055529173
90	0xbb41941f	-0.002953775
91	0x3c012dbe	0.007884441
92	0xbbeef951	-0.0072929044
93	0x3c5337fa	0.012891764
94	0x3bbad88c	0.005702084
95	0x3c8efd58	0.017454788
96	0xb94c1337	-0.00019462114
97	0x3b1d7c15	0.0024030257
98	0x3b5b9309	0.0033504388
99	0x3c8e0a17	0.017338796
100	0x3c8aec8e	0.016958501
101	0x3c26ee14	0.010188598
102	0x3b6245bc	0.0034526428
103	0x3b951a8d	0.0045502842
104	0xbc0907a9	-0.008363643
105	0xbb6105da	-0.0034335763
106	0xbbd774f8	-0.006575223
107	0x3c0704b1	0.008240865
108	0x3b3f6e5f	0.0029210073
109	0x3bb49f71	0.005512171
110	0x3c36f65b	0.011167134
111	0xbbf2362e	-0.0073917126
112	0x3b22b233	0.0024825453
113	0x3b8fcff5	0.004388804
114	0x3bacb1ce	0.0052702194
115	0x3bf93046	0.0076046316
116	0x3c225384	0.009907607
117	0xbb82b1e4	-0.0039884914
118	0x3c165065	0.009174441
119	0x3bce3753	0.0062932163
120	0xbbd08b79	-0.0063642827
121	0x3bc5d747	0.006037626
122	0x3c2d8e64	0.010593031
123	0xbbf3bf04	-0.0074385423
124	0xbc856e54	-0.01628796
125	0xbc6429b3	-0.0139259575
126	0x3c74ac05	0.014933591
127	0x3c29e4f6	0.01036953
128	0xba99605d	-0.0011701692
129	0xbaa978e8	-0.001292971
130	0x3b5c41e2	0.0033608605
131	0x3c1e0d40	0.009646714
132	0x3c611812	0.013738649
133	0x3a865303	0.0010248128
134	0x3bfbc97d	0.0076839314
135	0x3b3e7021	0.0029058533
136	0x3bfdaff6	0.0077419234
137	0x3bf850fe	0.0075780144
138	0xb8978141	-7.2243165e-05
139	0xbc03dcb2	-0.008048223
140	0xba229e16	-0.0006203366
141	0xba8ed256	-0.0010896425
142	0x3c12a4f6	0.008950463
143	0x3b7ea062	0.003885292
144	0x3c2a5f24	0.01039866
145	0x3c7aaad2	0.015299516
146	0x3b84c551	0.0040518423
147	0x3b45aea3	0.0030163906
148	0x3c091e82	0.00836909
149	0x376e59b4	1.4206791e-05
150	0xbbdf6e96	-0.006818603
151	0xba95d948	-0.0011432553
152	0x3c18bf2c	0.009322923
153	0x3b0f06ee	0.0021824199
154	0xbbb816eb	-0.0056179664
155	0xbaa385ad	-0.0012475752
156	0x3c088a69	0.008333781
157	0x3bb88340	0.0056308806
158	0x3935502b	0.0001729137
159	0x3c4ac9d7	0.012377224
160	0x3bff6ef4	0.007795209
161	0x3b006e54	0.001959701
162	0x3c365093	0.011127609
163	0x3c90665a	0.01762693
164	0x3c23c3a9	0.0099953795
165	0xba9e9d5e	-0.0012101342
166	0x3b8f0fca	0.004365896
167	0x3b21980d	0.002465728
168	0x3c04e6b3	0.008111644
169	0x3c5e685b	0.013574685
170	0x3a08a7b2	0.0005212977
171	0x3b69ef3b	0.003569557
172	0xb7a4fe95	-1.9668872e-05
173	0x3bc18125	0.005905288
174	0x3c060cf3	0.008181798
175	0x3c119e81	0.008887888
176	0x3b9f7d28	0.0048672147
177	0x3c14180f	0.009038939
178	0x3bf9c9a7	0.007622916
179	0x3c171fe6	0.009223914
180	0x3c638edd	0.013889042
181	0x3c620f79	0.013797634
182	0x3995fea0	0.00028609205
183	0x3c79b665	0.01524124
184	0x3c66c95a	0.014086092
185	0x3c18a3e7	0.009316421
186	0x3c735949	0.01485283
187	0x3c763269	0.015026667
188	0x3c442915	0.011972685
189	0x3b2571c6	0.0025244816
190	0x3c0136cf	0.007886603
191	0xbb836b2f	-0.00401058
192	0x3b81f49e	0.003965928
193	0x3c3a92f1	0.011387573
194	0x3bdd0fe2	0.006746278
195	0x3a72d547	0.0009263348
196	0x3c5e8de3	0.013583633
197	0x3b5ee1f4	0.003400919
198	0x3c36d2a5	0.01115862
199	0x3b4a3713	0.003085558
200	0x3b1ca555	0.0023902257
201	0x3b9abd01	0.004722238
202	0x3c6c9a9d	0.01444116
203	0x3c979b77	0.018506749
204	0x3c6ce391	0.014458553
205	0x3c477f48	0.012176342
206	0xbaa7530c	-0.0012765839
207	0xbc07e906	-0.008295303
208	0x3beeada4	0.007283883
209	0x3c56b8a5	0.013105546
210	0x3be4c66e	0.0069816625
211	0x3bb9a492	0.0056653703
212	0x3b3f91c5	0.0029231173
213	0x3c3d851f	0.011567383
214	0x3c65bb9a	0.0140217785
215	0x3c38a2b0	0.0112692565
216	0x3c1ff5a6	0.009763157
217	0x3c4c33b8	0.012463503
218	0x3c4a84bc	0.012360748
219	0x3c20068f	0.009767189
220	0x3b8d348e	0.0043092435
221	0x3bc00d48	0.0058609582
222	0x3c5c9eea	0.013465622
223	0xbc0c2327	-0.008553303
224	0x3c4288a5	0.011873399
225	0x3c63fc6b	0.013915162
226	0x3c236c29	0.009974518
227	0xbb9c2dd2	-0.0047662044
228	0x3b872f18	0.004125487
229	0x3c77ef57	0.015132747
230	0x3c73883e	0.014864026
231	0x3b5e8c9f	0.0033958328
232	0xbb62edb6	-0.003462655
233	0x3c2040b6	0.009781053
234	0x3c35e607	0.011102206
235	0xbb047e72	-0.002021697
236	0x39b7a98e	0.00035030808
237	0xba04785f	-0.0005053337
238	0x3b16fd7c	0.0023039272
239	0xbb040544	-0.002014474
240	0x3b227ad7	0.0024792457
241	0x3c09c01a	0.008407617
242	0x3c50c24d	0.012741637
243	0x3a834480	0.0010014921
244	0xbb6f713b	-0.0036535996
245	0x3b180b31	0.002320003
246	0xbac72e22	-0.0015196244
247	0x3bfe63c9	0.00776336
248	0x3c03dc17	0.008048079
249	0xbb4d7ada	-0.0031353743
250	0x3bb4f8d8	0.0055228285
251	0x3ba34fc3	0.0049838736
252	0xbaf673ee	-0.001880286
253	0xbacba06b	-0.0015535479
254	0x3c152622	0.00910333
255	0x3bc33790	0.0059575513

classifier.1.bias f4 [5]
0	0xbc2b4baa	-0.010455051
1	0x3c493d9d	0.012282756
2	0x3b31807a	0.0027084635
3	0x3a2fb14c	0.00067021395
4	0xbc6b3df6	-0.014358034
