models/accelerate_model_4/trained_models/tinyvgg_model.pth (torch, 782092 bytes, 10 tensors)

features.0.weight f4 [64, 3, 3, 3]
0	0x3b940518	0.004517209
1	0x3d96f64d	0.07371197
2	0x3e1bff17	0.15234028
3	0xbd9f5e4b	-0.07781657
4	0xbdcf40d9	-0.101197906
5	0x3e492920	0.19644594
6	0xbd256676	-0.040380917
7	0x3e47c34b	0.19508092
8	0xbe2bad4c	-0.16765326
9	0xbd969326	-0.07352285
10	0xbd464dd3	-0.048414063
11	0x3d21e672	0.03952641
12	0xbc1c386b	-0.0095349355
13	0xbd1c8b85	-0.038218994
14	0xbdcbd5f4	-0.09952918
15	0xbe51aeb5	-0.20476802
16	0xbd49f111	-0.049302164
17	0xbb9808e0	-0.00463973
18	0x3dc990ed	0.098420955
19	0xbd6d8aec	-0.057993814
20	0x3e4fc5ce	0.202903
21	0x39896365	0.0002620473
22	0xbda0c054	-0.07849184
23	0x3dbfb163	0.09360006
24	0xbc0938d2	-0.008375363
25	0x3e1e0e1c	0.1543507
26	0xbe2a8bcb	-0.1665489
27	0xbd8976e2	-0.06712128
28	0x3db19e21	0.08672739
29	0xbdf7b823	-0.12095668
30	0xbd692436	-0.0569193
31	0x3c56a918	0.0131018385
32	0x3d906555	0.070505776
33	0xbd8e0ec2	-0.069364086
34	0x3e392ea6	0.18084201
35	0x3de36b94	0.11104503
36	0x3d1437dc	0.036186084
37	0xbd52b39f	-0.05144083
38	0xbde7591a	-0.11296292
39	0x3e1e2829	0.15445007
40	0x3d898e13	0.06716552
41	0x3e04f85f	0.12985371
42	0x3e415234	0.18879014
43	0xbcfac36c	-0.030610763
44	0x3c67a01c	0.014137294
45	0xbd957ca8	-0.07299167
46	0xbd19410a	-0.03741554
47	0x3cf7b950	0.030239731
48	0xbdeca606	-0.11555104
49	0xbdeba3c3	-0.115058444
50	0xbddd6986	-0.108111426
51	0xbdf6464d	-0.120251276
52	0xbd95bc78	-0.07311338
53	0x3d51831e	0.051150434
54	0xbe0c63af	-0.13709901
55	0xbdd676f4	-0.10471907
56	0x3d6c71bb	0.05772565
57	0x3dd3edbf	0.10348081
58	0x3bbefe16	0.0058286292
59	0xbe1b8a26	-0.15189418
60	0xbdd1b38d	-0.10239325
61	0xbde722b1	-0.11285914
62	0x3d941ba9	0.07231838
63	0xbe125cc7	-0.14293204
64	0x3da9ce0a	0.08291252
65	0xbe250917	-0.16116749
66	0xbe0c839d	-0.13722081
67	0xbde9147b	-0.113808595
68	0xbdd53b53	-0.10411706
69	0xbcf926ba	-0.030413974
70	0xbdd2ec40	-0.10298967
71	0xbdb0f39a	-0.08640213
72	0xbe2ae876	-0.1669024
73	0x3bd1e2f0	0.006405227
74	0x3dbe8a3a	0.093037084
75	0xbd34d0fe	-0.044144623
76	0x3e5a8a73	0.21341877
77	0xbd63ca6d	-0.05561297
78	0x3e40190b	0.18759553
79	0xbd6f9758	-0.058493942
80	0x3e027524	0.12739998
81	0xbddfbc32	-0.10924567
82	0xbda6cb7b	-0.081442796
83	0xbd91b2c9	-0.07114179
84	0xbdd14b25	-0.10219411
85	0x3e48ff79	0.19628705
86	0x3e1abee8	0.15111887
87	0x3d749e02	0.059721
88	0x3d2dc7d5	0.042426903
89	0x3e28d5e0	0.16487837
90	0xbc6dc8f0	-0.014513239
91	0x3d43a705	0.047766704
92	0x3d1bc57f	0.038030144
93	0x3db1fbb9	0.086905904
94	0x3e20315f	0.15643834
95	0xbe085056	-0.13311896
96	0xbce7d086	-0.028297674
97	0xbe33234a	-0.1749393
98	0xbd5edae1	-0.054407958
99	0x3e26ff53	0.16308336
100	0x3d890d61	0.06692005
101	0x3dafb166	0.08578758
102	0x3c474247	0.012161798
103	0x3e088bfb	0.13334648
104	0xbe3fb1e3	-0.18720202
105	0x3da52a88	0.08064753
106	0xbdf2c014	-0.11853042
107	0xbe242ab2	-0.16031912
108	0x3e348149	0.17627443
109	0xbdcdae64	-0.10043028
110	0xbe0821e1	-0.13294174
111	0xbcc361b7	-0.023850305
112	0xbe389f6a	-0.18029562
113	0xbe20d1e8	-0.15705073
114	0x3e355a35	0.17710193
115	0x3e04e693	0.12978582
116	0x3d8d764c	0.06907329
117	0xbc2f5426	-0.010701215
118	0xbcfdbde6	-0.03097434
119	0x3c467f8c	0.0121153705
120	0xbc4fe674	-0.012689222
121	0xbd4ce220	-0.050020337
122	0x3df5502f	0.119781844
123	0xbd6a27d5	-0.057166893
124	0xbd26b30d	-0.0406981
125	0xbdabdd5b	-0.083918296
126	0x3de409ed	0.11134706
127	0x3de17a42	0.11009647
128	0xbe1e2197	-0.15442501
129	0xbd614855	-0.05500062
130	0x3d2c44a4	0.04205765
131	0x3c92165b	0.017832926
132	0xbdbcdb36	-0.09221499
133	0x3e11920c	0.14215869
134	0x3d2a188f	0.041527327
135	0xbd8aea09	-0.0678292
136	0x3dcd3b43	0.10021069
137	0x3d2806ff	0.041022297
138	0x3e041cf5	0.12901671
139	0xbad37c9c	-0.0016135159
140	0xbde81728	-0.11332542
141	0xbd9024c6	-0.07038264
142	0x3e31c33d	0.17359634
143	0xbe0170e4	-0.1264072
144	0xbe0b042b	-0.13575809
145	0x3e12ff2e	0.14355156
146	0x3df2ee5f	0.11861872
147	0x3d84ca63	0.06483915
148	0xbc067443	-0.00820643
149	0x3de28b1b	0.110616885
150	0xbb707860	-0.0036692843
151	0xbdc721d8	-0.09723252
152	0x3e36b490	0.17842317
153	0xbe2e334b	-0.17011754
154	0xbe203e09	-0.15648665
155	0xbe190299	-0.14942397
156	0xbe187dd5	-0.14891751
157	0x3dc08e21	0.09402109
158	0xbe26f5c0	-0.16304684
159	0xbe1299b3	-0.14316444
160	0xbda8e655	-0.08247057
161	0x3d3ca68f	0.04605728
162	0x3e1fece0	0.15617704
163	0x3e4370f0	0.19086051
164	0x3dbe5a0f	0.09294521
165	0xbd17c68d	-0.037054587
166	0xbd9aaf84	-0.07553008
167	0x3d9d968a	0.07694729
168	0x3cd599d7	0.026074333
169	0x3dedd651	0.11613143
170	0xbe2cdb8e	-0.16880628
171	0xbb19a3b6	-0.0023443527
172	0xbe180943	-0.14847283
173	0xbe0d12f4	-0.13776761
174	0xbd523dac	-0.051328346
175	0xbdcb4999	-0.09926147
176	0xbd2622d4	-0.04056056
177	0x3e3cdf03	0.18444447
178	0x3e0a22dd	0.13489862
179	0x3e314e12	0.17314938
180	0xbe3830d0	-0.1798737
181	0x3cadb016	0.021202128
182	0x3c98c871	0.018650265
183	0x3debbdf1	0.11510838
184	0xbe5682d9	-0.20948352
185	0xbe1dad18	-0.15398061
186	0xbdd631fb	-0.10458752
187	0x3e0d90cd	0.13824768
188	0xbe4e9a36	-0.20176014
189	0xbdd6ea52	-0.10493912
190	0xbc17308d	-0.009227884
191	0x3d338038	0.04382345
192	0xbdcaff1c	-0.099119395
193	0x3da16ded	0.07882295
194	0x3b09624c	0.002096313
195	0x3cca8b16	0.024724524
196	0xbe0c74f4	-0.13716489
197	0xbcdd9b92	-0.02705172
198	0xbe0c0cd6	-0.13676772
199	0x3e4cdeb2	0.20006827
200	0x3e29ea59	0.16593303
201	0x3dc48114	0.09594932
202	0x3e09c6a0	0.13454676
203	0xba875b2d	-0.0010326855
204	0xbe1af15e	-0.15131137
205	0x3e4f1548	0.20222962
206	0x39533673	0.00020142812
207	0x3d073681	0.033010963
208	0xbe42eb64	-0.19035107
209	0xbd4468fd	-0.047951687
210	0x3e148403	0.14503483
211	0xbd5a9898	-0.05336818
212	0xbdae9c8b	-0.08525952
213	0xbbdedc4d	-0.0068011642
214	0x3cc3fe07	0.02392484
215	0xbdfbd585	-0.12296585
216	0xbda107e6	-0.07862835
217	0x3d9ce5e1	0.076610334
218	0x3d006072	0.031341977
219	0xbe2cf8fe	-0.16891858
220	0x3e29a86b	0.16568153
221	0x3d9453d9	0.07242555
222	0x3dffe05d	0.12493966
223	0x3e2c1967	0.16806565
224	0x3e3d6339	0.18494882
225	0x3d525eaf	0.05135983
226	0x3c14a420	0.009072334
227	0xbca653bf	-0.020303605
228	0xbe03c5a2	-0.1286836
229	0x3dad4151	0.08459724
230	0xbe2c256f	-0.16811155
231	0x3cf02877	0.02931617
232	0x3d5088e2	0.05091179
233	0xbe2f6d26	-0.1713148
234	0xbcce4cbe	-0.025183078
235	0xbd89cdba	-0.06728692
236	0xbdbe8242	-0.093021885
237	0x3e1e2cbb	0.15446751
238	0xbc3f110c	-0.011661779
239	0xbd32fab8	-0.043696135
240	0xbdf2d25d	-0.1185653
241	0x3c29bc13	0.010359782
242	0xbe4482ea	-0.19190565
243	0x3e69b278	0.22821987
244	0x3e45338c	0.19257945
245	0x3db3b8c6	0.08775477
246	0x3e6c426d	0.23072214
247	0xbd9b7fbb	-0.07592722
248	0x3d9cc6a6	0.07655077
249	0xbd51925d	-0.051164974
250	0x3d954d45	0.072901286
251	0xbd95b9e8	-0.073108494
252	0xbe224886	-0.15847978
253	0x3e1faac1	0.15592481
254	0xbda31134	-0.079622656
255	0xbcb7f818	-0.022457168

features.0.bias f4 [64]
0	0x3e178b2a	0.1479918
1	0x3def59bd	0.11687038
2	0x3d167aaf	0.036738094
3	0x3df19ab8	0.117970884
4	0x3dd09bb2	0.101859465
5	0xbdfc3f0a	-0.12316711
6	0xbe0b45ca	-0.13600841
7	0x3e0b5f76	0.13610634
8	0x3cf1f439	0.0295354
9	0xbdba30a6	-0.0909131
10	0xbe1f6314	-0.15565139
11	0x3c520ae8	0.012819983
12	0xbe218f5f	-0.15777348
13	0xbe139bf0	-0.14414954
14	0x3e032284	0.12806135
15	0x39aeee9e	0.0003336565
16	0xbc0ab6e7	-0.008466459
17	0xbd0669c7	-0.03281572
18	0xb9544b9e	-0.00020246065
19	0xbe17ab94	-0.14811546
20	0x3c5903a4	0.013245497
21	0x3d725e55	0.059171993
22	0x3dd125ae	0.10212265
23	0x3e455d51	0.19273879
24	0xbd5e3da2	-0.054257996
25	0x3e124041	0.14282323
26	0x3e1cb430	0.15303111
27	0x3d4802c0	0.048830748
28	0xbe3e2bca	-0.18571392
29	0xbdaa7558	-0.08323163
30	0xbdc5e2a1	-0.09662367
31	0xbcb1e200	-0.02171421
32	0x3cb1304d	0.021629477
33	0xba9c4a54	-0.0011924007
34	0xbdd96e59	-0.1061675
35	0xbe20596b	-0.1565911
36	0xbca0e552	-0.019640598
37	0x3dc6d834	0.09709206
38	0xbdeb05d5	-0.11475722
39	0x3e1461cb	0.1449043
40	0x3ba5ac13	0.0050559132
41	0x3e5955bb	0.2122411
42	0x3b997e2d	0.004684231
43	0xbdf0f78b	-0.11765965
44	0x3e2ebfdc	0.17065376
45	0xbe21b485	-0.15791519
46	0x3db860a5	0.090028085
47	0xbce477c3	-0.027889138
48	0x3e040982	0.12894252
49	0xbc0387b6	-0.0080279615
50	0x3dbeb043	0.09310963
51	0xbe132fdd	-0.14373727
52	0x3c281c91	0.010260717
53	0x3d71d881	0.059044365
54	0xbe3ac2cc	-0.18238372
55	0xbe34a1ab	-0.17639796
56	0x3dca119a	0.098666385
57	0x3e27b345	0.1637698
58	0xbdb3d26e	-0.08780371
59	0xbe1f2253	-0.15540437
60	0xbe232e9c	-0.15935749
61	0xbc4e2251	-0.012581424
62	0xbd499de9	-0.04922286
63	0xbd9f1b6a	-0.07768901

features.2.weight f4 [64, 64, 3, 3]
0	0x3c5d81d6	0.013519725
1	0x3ccf2141	0.025284411
2	0x3d0d90c2	0.03456188
3	0xbc8c2b0a	-0.017110366
4	0x3d09e1c5	0.033662576
5	0x3c8e271c	0.017352633
6	0x3d3b831d	0.045779336
7	0x3d3463f9	0.044040654
8	0x3d79554d	0.060872365
9	0xbd29fc72	-0.041500516
10	0xbb549061	-0.003243469
11	0x3cb0ac3b	0.0215665
12	0xbd00b166	-0.03141918
13	0xbd33e7be	-0.04392218
14	0xbc8fad1d	-0.017538602
15	0xbaaa77c6	-0.0013005666
16	0xbcaa1a19	-0.020764397
17	0x3c0f6ca5	0.00875393
18	0xbbdc61bf	-0.0067255194
19	0x3b1612ca	0.0022899383
20	0xbc5dfcfc	-0.013549086
21	0x3d07152a	0.032979168
22	0x3cec53ad	0.028848493
23	0x3ce2f87e	0.027706381
24	0xbc6d9264	-0.014500234
25	0x3c8c7e31	0.017150017
26	0x3caa6586	0.020800363
27	0x3d1ecc27	0.038768914
28	0xbb3ee546	-0.0029128357
29	0x3d2cb3fe	0.04216384
30	0x3d3ebb05	0.046565074
31	0xbcc36886	-0.023853552
32	0x3c76d0e9	0.0150644565
33	0x3cc75466	0.024332236
34	0x3d15fb24	0.03661646
35	0xbb8d089d	-0.0043040053
36	0x3c5271f5	0.012844552
37	0x3cb06272	0.021531317
38	0xbc45756b	-0.01205192
39	0x3d65865b	0.056036334
40	0xbcca79b2	-0.024716232
41	0x3ce7a883	0.028278595
42	0x3ca8841f	0.020570813
43	0x3b67ef2f	0.0035390367
44	0x3c5a6e92	0.013332026
45	0xbd8b7797	-0.06809919
46	0xbd928453	-0.07154145
47	0xbd9776cd	-0.07395706
48	0xbd4c0443	-0.04980875
49	0xbd914354	-0.0709292
50	0xbd298666	-0.041387938
51	0xbcbb3506	-0.022852432
52	0xbb9b86d0	-0.0047462955
53	0xbd7df1d4	-0.061998203
54	0xbc8e89a2	-0.017399613
55	0xbcc37f46	-0.0238644
56	0xbc796845	-0.015222614
57	0xbdb91579	-0.09037299
58	0xbd93553e	-0.07193993
59	0xbd95a248	-0.07306343
60	0xbd4a7063	-0.049423587
61	0xbc8301a7	-0.015991999
62	0xbd506048	-0.05087307
63	0x3d0fc9cd	0.03510456
64	0xbd2bd597	-0.041951742
65	0xbd000511	-0.03125483
66	0x39f62d1f	0.00046954394
67	0x3cdc42a7	0.026887251
68	0x3b17db79	0.0023171587
69	0x3ca62a7e	0.020283934
70	0xbc72f2ec	-0.014828425
71	0xbc3c98cf	-0.011511042
72	0x3c11a54e	0.008889509
73	0xbd82137f	-0.06351375
74	0x3b5ee442	0.0034010564
75	0x3c712e86	0.014720565
76	0x3c301e11	0.010749356
77	0x3bd73ea6	0.0065687476
78	0xbbc24523	-0.005928652
79	0xbca33914	-0.019924678
80	0x3cdbac26	0.026815485
81	0xbd596eaa	-0.053084053
82	0xbd55f912	-0.052239485
83	0xbcd508fe	-0.026005264
84	0xbd1fd603	-0.039022457
85	0x3c231828	0.00995449
86	0xbc49995d	-0.012304631
87	0xbc12423c	-0.008926924
88	0xbd80c39b	-0.06287309
89	0xbd9295f6	-0.07157509
90	0xbd51ea98	-0.051249117
91	0xbd57b83e	-0.05266594
92	0xbc633552	-0.013867693
93	0xbcab0879	-0.020878064
94	0xbc57e850	-0.013177946
95	0xbb97f76b	-0.004637649
96	0xbd21d4cf	-0.03950959
97	0x3c845628	0.016154364
98	0xbba3c100	-0.0049973726
99	0xbc2f8c22	-0.010714563
100	0x3d115a77	0.035486665
101	0xbac26559	-0.0014831229
102	0x3be5d460	0.0070138425
103	0xbce91b5a	-0.028455425
104	0xbd161614	-0.03664215
105	0xbc8f2b48	-0.017476693
106	0xbaa3a3a2	-0.001248468
107	0x3b4bc2cb	0.0031091447
108	0xbd07da37	-0.03316709
109	0xbd9c2ea1	-0.07626081
110	0xbd581d50	-0.05276233
111	0xbd92edb5	-0.07174245
112	0xbda4fbd9	-0.08055849
113	0xbc7aebe8	-0.0153150335
114	0x3d65b4bc	0.056080565
115	0xbd2d1579	-0.042256806
116	0x3c2a9052	0.010410385
117	0xbd9c35bf	-0.07627439
118	0xbd562d3e	-0.05228924
119	0xbd347f4f	-0.044066723
120	0xbd42993e	-0.047509424
121	0xbd41b22e	-0.047289066
122	0xbd6352ce	-0.05549889
123	0xbd90d88e	-0.070725545
124	0xbd6daef7	-0.058028188
125	0xbc9c9e54	-0.019118465
126	0xbc25e6cf	-0.01012583
127	0xbd9294dd	-0.071573
128	0xbcba75ba	-0.022761215
129	0xbd1eecf6	-0.038800202
130	0xbaeba207	-0.0017977365
131	0xbd6f34e5	-0.058400054
132	0x3bd6a586	0.0065504937
133	0xbd13296d	-0.03592818
134	0xbce75952	-0.028240833
135	0x3a883923	0.0010393005
136	0x3c9aee31	0.018912407
137	0x3b52cb44	0.0032164613
138	0xbcc0131d	-0.023446614
139	0x3d1d49b9	0.038400386
140	0x3b39611b	0.002828664
141	0xbd3634d0	-0.04448396
142	0xbd293b84	-0.041316524
143	0x3c4f8c92	0.012667792
144	0xbcc3fa13	-0.023922956
145	0x3cb7ad57	0.022421522
146	0x3cf9199e	0.030407723
147	0x3d54ecc6	0.051983617
148	0x3cb93be6	0.02261157
149	0x3b28667a	0.0025695846
150	0x3d18ea3a	0.03733275
151	0x3c36f5f5	0.011167039
152	0x3d0715ed	0.032979894
153	0xbc867176	-0.016411524
154	0x3c5bb8e1	0.013410778
155	0x3c8db7c8	0.017299548
156	0x3c8c2643	0.017108088
157	0xbb31b60d	-0.0027116567
158	0xbcc6e803	-0.024280554
159	0x3b9a6771	0.004712038
160	0xbbee2ba9	-0.0072683883
161	0x3c13f923	0.009031567
162	0xbc8fa920	-0.0175367
163	0xbd670af7	-0.05640694
164	0xbc886a89	-0.016652362
165	0xbd641cbb	-0.055691462
166	0xbd0aa8aa	-0.033852257
167	0xbd6ff3a6	-0.05858197
168	0xbd718504	-0.058964744
169	0xbd1c4122	-0.038148053
170	0xbcd3b54e	-0.025843289
171	0xbd3eb1c4	-0.04655625
172	0x3bce408a	0.0062943147
173	0xbbc0f095	-0.0058880546
174	0xbba9c77b	-0.0051812506
175	0xbc04f215	-0.0081143575
176	0xbd842096	-0.06451528
177	0xbd2831c9	-0.041063104
178	0x3b1a8cdb	0.0023582492
179	0x3be5c67e	0.0070121875
180	0x3ca6fcf5	0.020384291
181	0x3c984428	0.018587187
182	0x3d3022c6	0.043001913
183	0xbcb10553	-0.021608984
184	0xbcf61e84	-0.030043848
185	0xbd039e44	-0.032133356
186	0x3cdfe925	0.027332852
187	0x3b7f192f	0.0038924923
188	0x3ce194ff	0.027536867
189	0xbb66564d	-0.0035146654
190	0xbd4420b0	-0.047882736
191	0x3ba8ab8d	0.0051474036
192	0x3c8d29ff	0.01723194
193	0xbd03e9ae	-0.032205276
194	0xbd41c3e6	-0.047305964
195	0xbc3d4ca8	-0.011553921
196	0x3cc3aca1	0.023886027
197	0x3b172de0	0.0023068115
198	0x39283862	0.00016042733
199	0x3c9e48e6	0.01932187
200	0x3d36b6b1	0.04460782
201	0x3c32bc06	0.010909086
202	0xbcce565d	-0.025187666
203	0x3c816103	0.01579333
204	0x3cf9d98c	0.030499242
205	0x3caa6e56	0.020804565
206	0x3d12622b	0.03573815
207	0x3cb0cd3e	0.021582242
208	0x3d13ab05	0.03605177
209	0xbcf5698b	-0.029957553
210	0xbc53a7e8	-0.01291845
211	0x3d24fdec	0.04028122
212	0xbc3d908b	-0.011570106
213	0xbc8aa495	-0.016924182
214	0x3d08c1a0	0.03338778
215	0x3cda8772	0.026675913
216	0x392f1d56	0.00016700229
217	0x3d129d4b	0.035794538
218	0x3d0dba64	0.034601584
219	0xbc25a2bb	-0.010109599
220	0x3c84c072	0.016205046
221	0xbaae50b0	-0.0013299193
222	0x3c8c71ea	0.017144162
223	0xbc8f1da2	-0.017470185
224	0x3d32ae93	0.04362352
225	0x3c221ca4	0.009894524
226	0x3c0cb2ae	0.008587522
227	0x3d275d24	0.04086031
228	0x3d2ed88e	0.04268699
229	0x3d48ba19	0.0490056
230	0x3ceba147	0.028763426
231	0x3cb86c56	0.022512596
232	0x3d57fe7e	0.052732937
233	0x3d15078c	0.03638415
234	0x3b822f17	0.0039728987
235	0x3d373b87	0.044734504
236	0x3ca20373	0.019777035
237	0x3b18c97a	0.0023313449
238	0xbb996239	-0.0046808985
239	0x3d39cd2e	0.04536169
240	0x3af4e3fc	0.0018683667
241	0x3d4f0dbb	0.050550204
242	0x3d6f65b4	0.0584466
243	0xba2c98cf	-0.00065840496
244	0x3d000a17	0.031259622
245	0xbcfe4667	-0.03103943
246	0xbc16c152	-0.009201365
247	0xbca20b37	-0.019780738
248	0xbd017807	-0.031608608
249	0x3d2fbe57	0.04290613
250	0xbc948ed2	-0.018134508
251	0x3d291726	0.04128184
252	0x3b88598b	0.004161065
253	0xbca77ffe	-0.020446774
254	0xbc71a4e2	-0.014748784
255	0xbd63d5c4	-0.055623785

features.2.bias f4 [64]
0	0x3c2ed09c	0.010669854
1	0xbd280370	-0.041018903
2	0xbb4e0158	-0.0031433906
3	0x3cc4d470	0.02402708
4	0xbc23f738	-0.010007672
5	0x3ce14cd7	0.02750246
6	0x3a769f67	0.0009407908
7	0xbd19a069	-0.037506495
8	0x3c646a68	0.013941385
9	0xbc8b8761	-0.017032327
10	0xbd119ce8	-0.035550028
11	0xbd2a75f9	-0.041616414
12	0xbc7e7fcd	-0.0155334
13	0xbc0c03fa	-0.00854587
14	0xbd54c3db	-0.051944595
15	0xbcc7107a	-0.024299849
16	0xbcca0608	-0.024661079
17	0xbc3ac80d	-0.011400235
18	0xbce4c37d	-0.027925247
19	0x3cc223fe	0.023698803
20	0x3c5838cd	0.013197136
21	0x3ba2dc74	0.0049701277
22	0xbcc30845	-0.023807654
23	0xbc8d62a6	-0.017258953
24	0xbd3710f5	-0.044693906
25	0x3c5fbd87	0.013656027
26	0x3c57156e	0.013127668
27	0xbcace89d	-0.021107012
28	0x3c9bb31e	0.019006308
29	0x3d08c670	0.03339237
30	0xbd0ee37e	-0.034884922
31	0x3cadab6f	0.02119991
32	0xbc9c7044	-0.019096501
33	0xbd3d1941	-0.046166662
34	0x3a709879	0.00091779936
35	0xbc3315e1	-0.010930509
36	0x3cd9163b	0.026499858
37	0xbcdebcb6	-0.027189594
38	0xbaded59c	-0.0017000916
39	0x3d16e3f9	0.036838505
40	0x3caeed9f	0.021353541
41	0xbcdf0c04	-0.02722741
42	0xbb9b4ac4	-0.0047391374
43	0x3d4205c6	0.047368787
44	0xba9cf6b6	-0.0011975381
45	0xbd353419	-0.044239137
46	0x3c495be6	0.012289977
47	0x3cb8cdaf	0.022559015
48	0x3d03c075	0.032165963
49	0xbc761136	-0.015018752
50	0xbc9a9214	-0.018868484
51	0xbc9bb64b	-0.019007822
52	0x3ce0c378	0.027436957
53	0xbd2a7f15	-0.0416251
54	0xbcab5c94	-0.020918168
55	0xbcd25270	-0.025674075
56	0x3b1f7252	0.0024329615
57	0xbb8c0b89	-0.004273836
58	0xbce65cf8	-0.028120503
59	0xbd4e980e	-0.05043798
60	0xbbc0b5f0	-0.0058810636
61	0xbd4d3c3d	-0.050106276
62	0x3a0c815e	0.00053598534
63	0xbc7c883f	-0.015413343

features.5.weight f4 [64, 64, 3, 3]
0	0xbb5b1294	-0.0033427821
1	0x3ca55925	0.020184109
2	0xbc5c8be9	-0.013461092
3	0x3cfe38bc	0.031032912
4	0x3d39f479	0.045399163
5	0x3cade5ce	0.021227743
6	0x3d127b42	0.03576208
7	0x3d18704b	0.037216466
8	0x3cebc05f	0.028778253
9	0x3cfb5721	0.030681195
10	0xbc4c0cc2	-0.012454214
11	0xbaf44593	-0.0018636457
12	0x3c24f9d7	0.010069332
13	0x3c7d250e	0.015450729
14	0xbd2e12ca	-0.042498387
15	0x3c9ef2d4	0.019402899
16	0xbceb896f	-0.028752057
17	0x3cdc0344	0.026857026
18	0xbc7c42e0	-0.015396804
19	0xbd32c91b	-0.04364882
20	0xbccf1999	-0.02528076
21	0x3d0de5e9	0.034643088
22	0xbc3bf448	-0.011471815
23	0xbc1ec61b	-0.009690787
24	0xbd1e751a	-0.038685896
25	0xbb77bf15	-0.0037803103
26	0x3cd8d743	0.026469832
27	0xbb414ea3	-0.0029496334
28	0x3c47e3f8	0.012200348
29	0xbd10f979	-0.035394166
30	0x3c0fbdfd	0.008773324
31	0xbd411267	-0.04713669
32	0xbb139634	-0.0022519948
33	0x3c255693	0.010091442
34	0xbb7f639a	-0.003896928
35	0xbd26167b	-0.040548783
36	0x3cda66e3	0.026660388
37	0x3cce24f8	0.025164112
38	0xbc3dd116	-0.0115854945
39	0xbb875024	-0.0041294266
40	0xbbfc5f56	-0.0077017946
41	0xbcf8e083	-0.030380493
42	0xbcf7c878	-0.030246958
43	0x3ceeb447	0.029138697
44	0xbcd8d969	-0.026470857
45	0xbcc93447	-0.02456106
46	0x3d123bb7	0.03570148
47	0x3ccbc117	0.024872346
48	0xbcbe8014	-0.023254432
49	0xbd3786c2	-0.04480625
50	0xbcaac4fb	-0.02084588
51	0x3d431a20	0.047632337
52	0x3cb211ab	0.02173694
53	0x3c6fb21d	0.014629868
54	0xbcd5194b	-0.026013037
55	0xbcc86753	-0.024463331
56	0xbd128a8f	-0.03577667
57	0x3c980e69	0.018561559
58	0x3cdfd613	0.027323758
59	0x3cc7740b	0.024347326
60	0x3bf9dd5c	0.007625265
61	0xbc81cfce	-0.01584616
62	0xbcab6679	-0.020922886
63	0x3a7bf65d	0.0009611601
64	0xbcd5034e	-0.026002552
65	0xbc9539bf	-0.018216012
66	0x3bb41235	0.0054953345
67	0x3ceda412	0.029008899
68	0x3d37bdcc	0.04485874
69	0xbb80cb92	-0.0039305175
70	0x3bd4927e	0.00648719
71	0x3c805cfe	0.015669342
72	0xbce2a63e	-0.027667161
73	0xbc8e111a	-0.017342139
74	0x3bf43059	0.0074520526
75	0x3b1430b4	0.0022612037
76	0xbca8562f	-0.020548908
77	0x3d43c4d5	0.047795136
78	0xbd34cda9	-0.044141445
79	0x3d380d39	0.044934485
80	0x3d5f3d97	0.054502096
81	0xbd393687	-0.045218017
82	0xbbbee356	-0.0058254404
83	0x3d3fce8c	0.046827838
84	0xbd2dfe43	-0.04247881
85	0x3d266302	0.040621765
86	0x3d87f00f	0.066375844
87	0xbd68cd05	-0.056836147
88	0xbb858c8d	-0.004075593
89	0x3d587171	0.05284256
90	0xbc5c5b68	-0.013449527
91	0x3c2ec7cd	0.010667753
92	0x3a815756	0.0009867947
93	0x3d0889b0	0.033334434
94	0x3b16f0a5	0.002303162
95	0x3c8e2896	0.017353337
96	0xbb735f34	-0.0037135603
97	0x3d56e5df	0.052465316
98	0xbc6b4388	-0.014359362
99	0x3cd6c937	0.026218994
100	0xbd34a7d2	-0.04410536
101	0x37b42b5c	2.1477863e-05
102	0xbd22c73b	-0.039740782
103	0xbc5967d1	-0.013269381
104	0xbc8939e5	-0.01675124
105	0xbb846264	-0.0040400494
106	0x3ab9289c	0.0014126482
107	0xbbe2ab33	-0.006917381
108	0xbca17828	-0.019710615
109	0x3bfbe11f	0.0076867486
110	0xbbe678ff	-0.007033467
111	0x3cf92adb	0.030415943
112	0xbd10886a	-0.035286345
113	0xbcbad8d1	-0.022808464
114	0xbd36ce82	-0.044630535
115	0xba23f9c8	-0.0006255177
116	0xbcf17035	-0.02947245
117	0x3cca467b	0.02469181
118	0xbcfddc42	-0.030988816
119	0x3cc05923	0.023480004
120	0x3c668325	0.014069353
121	0xbcebf7b1	-0.028804632
122	0x3abbbc19	0.0014323025
123	0xbd35e72b	-0.044409912
124	0xbd3cef5f	-0.04612672
125	0xbc8d22fc	-0.017228596
126	0xbd11c57e	-0.035588734
127	0x3d0545ac	0.032537147
128	0x3d7239c6	0.05913713
129	0xbd0c6d5a	-0.034283973
130	0x3d2e53f2	0.042560525
131	0x3d77500d	0.060379077
132	0x3d61f211	0.055162493
133	0xbb2ce171	-0.002637949
134	0x3d02cd44	0.031934038
135	0xbc98c9f2	-0.018650983
136	0x3ba4aa9b	0.0050252206
137	0x3caa5d4c	0.02079644
138	0x3c545d71	0.012961731
139	0x3d4502b2	0.048098274
140	0x3bffc246	0.0078051416
141	0x3c3e7adc	0.011625972
142	0x3c435651	0.011922435
143	0x3d4be26d	0.049776483
144	0xbc05531d	-0.0081374915
145	0xbc575f39	-0.013145261
146	0x3cfb4ccb	0.030676266
147	0x3d00dd48	0.03146103
148	0x3cab822e	0.020936098
149	0xbd14c0f7	-0.036316838
150	0x3d051940	0.032494783
151	0xbb388399	-0.002815461
152	0x3ce95f18	0.028487727
153	0xbd2dd8e8	-0.042443186
154	0x3bd4ed4e	0.0064980155
155	0x3cee0990	0.029057294
156	0xbb9e46ea	-0.004830231
157	0xbb02c167	-0.0019951703
158	0x3b88a164	0.00416963
159	0x3c04d93d	0.008108434
160	0x3bc7dff3	0.006099695
161	0x3d08c53b	0.03339122
162	0x3bf89e98	0.007587265
163	0xbccaa02e	-0.024734583
164	0x3d73f5aa	0.059560455
165	0x3be2913f	0.0069142873
166	0x3c249739	0.01004582
167	0x3d2fc77e	0.04291486
168	0xbca22bdb	-0.019796303
169	0xbc931795	-0.01795558
170	0x3d61bc80	0.05511141
171	0xbc0b02c4	-0.008484546
172	0x3c7a46ef	0.015275701
173	0x3ce607fc	0.02807998
174	0x3d2ac623	0.041692864
175	0x3d2c8e5b	0.04212795
176	0xbc142d16	-0.009043952
177	0x3b3a3cd6	0.0028417609
178	0xbd2897bf	-0.04116034
179	0xbd0608b4	-0.032723144
180	0xbc9550b4	-0.018226959
181	0xbd2165f4	-0.03940387
182	0xbca079d4	-0.019589342
183	0xbc50f51c	-0.012753751
184	0x3b625c88	0.0034540016
185	0xbd0b4f69	-0.03401128
186	0xbc5c3860	-0.013441175
187	0xbc06bcdd	-0.008223739
188	0x3d38ca74	0.04511495
189	0xbccf18c6	-0.025280368
190	0x3c8c441b	0.017122319
191	0x3b7cb874	0.003856209
192	0x3bb14712	0.0054100836
193	0xbd01604e	-0.031585984
194	0xbc0c0e4e	-0.008548332
195	0x3ce69661	0.028147878
196	0xbd001ffb	-0.0312805
197	0x3be540d8	0.0069962554
198	0x3bbcf32c	0.005766293
199	0x3ca06b09	0.019582288
200	0xbc73d007	-0.014881141
201	0xbd043761	-0.032279376
202	0x3c99fbdf	0.01879686
203	0xbc760ad1	-0.015017227
204	0x3c4d4ffe	0.012531279
205	0x3d0ccbfb	0.03437422
206	0xbc53db29	-0.01293067
207	0x3c126fa1	0.008937747
208	0x3d1f04b0	0.03882283
209	0x3d98f789	0.074690886
210	0x3d185b0c	0.037196204
211	0x3c681d74	0.014167178
212	0x3d16d2f8	0.03682229
213	0x3d673058	0.05644259
214	0x3dbdb864	0.09263685
215	0x3dac30a6	0.084077165
216	0x3c59bf85	0.013290291
217	0x3cd11c6f	0.025526254
218	0x3c2a2975	0.010385861
219	0xbd1b778b	-0.037955802
220	0xbd052d61	-0.03251398
221	0xbc74289a	-0.014902258
222	0x3cfe86a6	0.031070065
223	0x3cc821a4	0.024430104
224	0x3cbed266	0.023293685
225	0xbb15d3f5	-0.0022861932
226	0xbd00fa2c	-0.031488582
227	0x3d050a15	0.032480318
228	0xbb97ca36	-0.0046322597
229	0x3b7d2b8c	0.0038630692
230	0xbb038131	-0.0020066018
231	0xbc90e33d	-0.01768648
232	0x3bad2dd6	0.005285005
233	0x3d205723	0.0391456
234	0xbd05c46e	-0.032658033
235	0xbb7bf189	-0.0038443527
236	0xbc42e110	-0.011894479
237	0x3c67470c	0.01411606
238	0xbcb69c1d	-0.022291237
239	0x3d05aeca	0.032637395
240	0xbccea6eb	-0.025226077
241	0xbd0aef28	-0.033919483
242	0xbc5a28ff	-0.013315438
243	0x3c8b642f	0.017015545
244	0x3d380b77	0.04493281
245	0xbd0957ae	-0.033530883
246	0xbc63657e	-0.013879178
247	0xbc2431e4	-0.0100216605
248	0xbc392670	-0.011300668
249	0x3c947b3f	0.018125175
250	0xbccec663	-0.025241083
251	0x39c68dce	0.00037871156
252	0x3cbc2512	0.022966895
253	0xbd2d827c	-0.042360768
254	0x3ba05e66	0.0048940657
255	0x3b9ace8f	0.0047243307

features.5.bias f4 [64]
0	0xbca563af	-0.020189134
1	0x3d18639b	0.037204366
2	0x3c613cf4	0.0137474425
3	0xbcec79fa	-0.028866757
4	0x3d366dfe	0.04453849
5	0xbc8c3cc0	-0.017118812
6	0x3bcff2c0	0.0063460767
7	0xbd1db54a	-0.03850297
8	0xbc58974f	-0.0132196685
9	0x3d6e3a86	0.05816128
10	0xbbad2976	-0.0052844835
11	0xbc6eba29	-0.014570751
12	0xbcb96206	-0.022629749
13	0x3c1c2e20	0.009532481
14	0xbb090bc6	-0.0020911559
15	0xbcc0016f	-0.023438184
16	0x3c2e700e	0.010646833
17	0xbc14fdc7	-0.009093708
18	0xbd05d781	-0.032676224
19	0xbce9ccf2	-0.028540108
20	0xbcd1a04c	-0.02558913
21	0xbd1b598d	-0.0379272
22	0x3c551c70	0.013007268
23	0x3caf3d4a	0.02139153
24	0x3ced4702	0.028964523
25	0x3bbe4264	0.005806254
26	0x3c14cb71	0.009081707
27	0xbd4003fc	-0.0468788
28	0xbcd9b365	-0.0265748
29	0x3d48a517	0.048985567
30	0xbd35a07b	-0.0443425
31	0x3cfa373f	0.030543922
32	0x3c5888c0	0.0132161975
33	0xbb2b2502	-0.0026114588
34	0xbd03ff8b	-0.032226127
35	0xbd420a81	-0.0473733
36	0xbd204c63	-0.039135348
37	0x3b066c0b	0.0020511176
38	0x3c88b212	0.016686473
39	0xbcb6c333	-0.022309875
40	0x3d929e17	0.071590595
41	0xbd22a52a	-0.039708294
42	0x3d32df87	0.043670204
43	0x3cf809d4	0.030278124
44	0x3c8bfe9b	0.017089179
45	0x3b542e6d	0.0032376305
46	0xbcb22e23	-0.021750515
47	0x3c9b03ee	0.018922772
48	0xbcb084f7	-0.021547778
49	0xbcaee5c5	-0.021349797
50	0xbc1bd9ee	-0.009512408
51	0xbd3a66da	-0.045508243
52	0x3c866343	0.016404754
53	0xbd39530c	-0.045245215
54	0xbca5aef2	-0.020225022
55	0x3d420d5d	0.047376025
56	0xbd5985b7	-0.053106036
57	0xbc16c1fc	-0.009201523
58	0xbd11166a	-0.035421766
59	0xbcb59e57	-0.022170229
60	0xbd33ee57	-0.04392847
61	0x3d54b272	0.05192799
62	0xbd392819	-0.045204256
63	0x3bab16ff	0.005221247

features.7.weight f4 [64, 64, 3, 3]
0	0x3d7c9426	0.061664723
1	0x3d07bf2b	0.033141296
2	0xbc362b16	-0.011118671
3	0x3cabdc43	0.020979052
4	0x3d6d440d	0.057926226
5	0xbbcd4696	-0.006264518
6	0x3c84633f	0.016160605
7	0xbc879359	-0.016549753
8	0xbc1c22fc	-0.009529825
9	0xbc0437dd	-0.0080699595
10	0x3cfdf723	0.031001633
11	0xbd143258	-0.036180824
12	0xbd03ec01	-0.032207493
13	0xbcda9c4b	-0.026685854
14	0xbd2e2f2d	-0.04252546
15	0xbc3b5633	-0.011434126
16	0x3c8156da	0.015788484
17	0xbbf4ee5c	-0.0074747037
18	0x3bf16247	0.007366452
19	0xbce703f2	-0.028200123
20	0x3ccb394e	0.024807598
21	0x3c548ed8	0.01297351
22	0x3aea916a	0.001789612
23	0x3c86349a	0.016382504
24	0xbbb48774	-0.0055093113
25	0x3cfdb3c8	0.030969515
26	0x3d435409	0.047687564
27	0xbc140d80	-0.009036422
28	0xbcf8d9d8	-0.030377313
29	0xbd2bdb1b	-0.041957002
30	0xbb664930	-0.0035138838
31	0xbc1dd6da	-0.009633744
32	0x3aaf2967	0.0013363779
33	0x3c76fb1f	0.01507452
34	0xbc0a9143	-0.008457485
35	0xbc0cebde	-0.008601157
36	0xbbc7b0a2	-0.0060940543
37	0xbd6d60c2	-0.057953604
38	0xba21d6fe	-0.0006173699
39	0xbce05304	-0.027383335
40	0xbd234fc1	-0.03987098
41	0xbd489553	-0.04897053
42	0xbcf852b8	-0.03031288
43	0x3bd0daf4	0.0063737575
44	0xbcb43be9	-0.022001224
45	0xbd304382	-0.04303313
46	0xbbd2a7b2	-0.0064286822
47	0x3d3eebd0	0.046611607
48	0xbc821a05	-0.015881548
49	0x3d52e934	0.05149193
50	0x3d8f8dcc	0.070094675
51	0xbc48c41d	-0.012253788
52	0x3c4f2a26	0.012644326
53	0x3d733f9f	0.059386846
54	0xbbe18df2	-0.0068833763
55	0x3ba160f8	0.0049248897
56	0xbc5bf62d	-0.013425392
57	0x3cbc9ddd	0.023024494
58	0x3d0e3d84	0.034726635
59	0x3cb94e93	0.022620475
60	0xbd07a1f7	-0.033113446
61	0xbcc1e952	-0.023670826
62	0xbc0a7f6e	-0.008453233
63	0xbdbe485b	-0.092911445
64	0xbab24731	-0.0013601539
65	0xbd97295d	-0.07380936
66	0xbcc4bddb	-0.024016311
67	0x36f1d470	7.2070907e-06
68	0xbd8ef786	-0.06980805
69	0xbd5ad136	-0.053422175
70	0xbd7c0d12	-0.061535902
71	0xbd462ee1	-0.04838455
72	0x3b3fd477	0.0029270926
73	0xbd88ae8a	-0.06673916
74	0x3c014718	0.007890485
75	0xbc2c33e9	-0.010510423
76	0xbc301ff9	-0.01074981
77	0x3ba94400	0.005165577
78	0xbcd19ddc	-0.025587969
79	0xbc8bea7f	-0.01707959
80	0xbcf9bcf0	-0.0304856
81	0x3c603b1d	0.013685969
82	0xbce2c671	-0.027682515
83	0xbd9c2b6f	-0.07625472
84	0xbd0c4744	-0.03424765
85	0xbda306ed	-0.07960305
86	0xbd027882	-0.031853206
87	0xbdca5337	-0.09879153
88	0xbdbf6b5f	-0.09346651
89	0xbd8bfd54	-0.06835428
90	0xbd0ebd2c	-0.034848377
91	0xbd154d9a	-0.03645096
92	0xbc6fa0a8	-0.014625706
93	0xbd8bbb8a	-0.068228796
94	0xbd09ee0c	-0.033674285
95	0xbd5d919e	-0.05409395
96	0xbdaa5933	-0.08317795
97	0xbd19bebc	-0.037535414
98	0xbd5fca42	-0.054636247
99	0x3c6110d2	0.01373692
100	0x3cdd19f6	0.026989918
101	0xbd265e5d	-0.040617336
102	0x3cf70483	0.030153519
103	0xbc762e07	-0.015025622
104	0x3cb51b18	0.022107646
105	0x3c8d94ad	0.017282808
106	0x3c279707	0.010228879
107	0xbce62b22	-0.02809674
108	0x3cdd1a54	0.026990093
109	0x3b781238	0.0037852656
110	0xbd693cd8	-0.05694279
111	0x3c1629ad	0.00916521
112	0xbd7b7bb6	-0.061397277
113	0xbd5eb60a	-0.054372825
114	0xbd6fe61e	-0.058569066
115	0xbd3ca162	-0.046052344
116	0xbd4ce6ee	-0.05002492
117	0xbc9038c4	-0.017605193
118	0x3c22929c	0.00992265
119	0xbd8aea25	-0.06782941
120	0xbd681886	-0.056664012
121	0xbca6af92	-0.02034739
122	0xbd422486	-0.047398113
123	0xbd679c80	-0.056545734
124	0x3cac49b7	0.021031244
125	0xbc5cca0f	-0.013475909
126	0x3d35f35b	0.044421535
127	0x3da37366	0.07980995
128	0x3dc67b9a	0.09691544
129	0x3b9734e0	0.0046144575
130	0x3daffc49	0.085930414
131	0x3d56e268	0.05246201
132	0xbccaa36d	-0.02473613
133	0x3d0e0b1e	0.03467857
134	0xbb90289e	-0.004399373
135	0x3d08215f	0.03323495
136	0xbd04ace0	-0.03239143
137	0x3c0028e7	0.007822252
138	0xbcfd5b61	-0.030927362
139	0xbcc1ffbf	-0.02368152
140	0xbcfc58c6	-0.03080405
141	0xbda12f0e	-0.07870303
142	0xbd73ea24	-0.059549466
143	0xbd7cda00	-0.06173134
144	0xbd0a5106	-0.033768676
145	0xbc814e63	-0.015784448
146	0x3c23018a	0.009949097
147	0xbc9b2d2c	-0.018942438
148	0x3d679589	0.056539092
149	0x3d72f4e4	0.059315577
150	0x3c24d09c	0.010059502
151	0x3d6c17bd	0.057639826
152	0x3cd5bcdb	0.02609103
153	0x3c71bf74	0.014755119
154	0xbcb3bbc1	-0.021940114
155	0xbcf7157a	-0.030161608
156	0x3c8e636f	0.017381398
157	0x3d0b63d3	0.034030747
158	0x3cd97766	0.026546191
159	0xbd2b473b	-0.041815978
160	0x3d090a6b	0.0334572
161	0xbd2c3799	-0.04204521
162	0xbc8fe3e7	-0.017564727
163	0x3b6ee76c	0.0036453856
164	0x3c920ef9	0.017829405
165	0x3cccb2a8	0.024987534
166	0xbca049a7	-0.01956637
167	0xbc23726d	-0.009976012
168	0xbc563ff5	-0.013076772
169	0xbccc5b86	-0.024945986
170	0x3a869a73	0.0010269418
171	0xbc4274a0	-0.011868626
172	0x3cb3b44f	0.021936564
173	0xbd190c32	-0.037365146
174	0x3d4b1010	0.049575865
175	0xbb026a77	-0.0019899884
176	0xbb912215	-0.0044291117
177	0x3d6306c8	0.05542639
178	0x3d85a44a	0.06525476
179	0x3d225b28	0.039637715
180	0xbcbcb9d2	-0.023037825
181	0xbd77c854	-0.060493782
182	0xbad70c59	-0.0016406878
183	0xbd560277	-0.052248444
184	0xbcff76eb	-0.031184634
185	0x3d389704	0.045065895
186	0x3bc6dd44	0.0060688574
187	0xbc2f176b	-0.010686736
188	0x3d9dcd35	0.07705156
189	0xbae2f174	-0.001731439
190	0xbc017c8f	-0.007903232
191	0x3bb80057	0.005615275
192	0x3ca2f60c	0.019892715
193	0x3d1133bb	0.035449725
194	0x3c78bf02	0.015182259
195	0x3c941631	0.018076988
196	0xbc08330d	-0.008312953
197	0xbc5a6f79	-0.013332241
198	0x3c9e4c72	0.019323561
199	0xbc3e8679	-0.0116287405
200	0x3a9315b4	0.0011221678
201	0x3d1d5e57	0.038420048
202	0x3d36d430	0.04463595
203	0xbbf39eff	-0.0074347253
204	0xbcfc5e42	-0.030806664
205	0x3d81670a	0.06318481
206	0x3cb4935b	0.02204292
207	0xbd19c5bb	-0.037542086
208	0xbb7a3801	-0.0038180354
209	0x3c8a6df7	0.016898138
210	0x3d08bad1	0.033381287
211	0xbd010091	-0.03149468
212	0xbcdff00a	-0.02733614
213	0xbb311434	-0.0027020099
214	0xbd216b29	-0.039408837
215	0x3cfe640d	0.031053567
216	0x3c54d438	0.01299005
217	0x3d068bbe	0.032848112
218	0x3a152c52	0.0005690503
219	0xbc1160e5	-0.008873199
220	0x3cf60381	0.030030968
221	0xbc0908d1	-0.008363918
222	0xbd0ea3c1	-0.034824137
223	0xbc848269	-0.016175466
224	0x3d699085	0.05702259
225	0x3c303d8f	0.010756864
226	0x3ce99ad7	0.028516216
227	0x3c84ad3a	0.016195882
228	0xbcf4bd67	-0.02987547
229	0xbc1f6955	-0.009729703
230	0x3c907181	0.017632248
231	0x3caa6d2b	0.020804008
232	0xbd32d8d4	-0.043663815
233	0xbd210719	-0.03931341
234	0xbd753476	-0.059864484
235	0x3cfcb927	0.030850006
236	0x3c2d9bab	0.010596196
237	0xbc3c385d	-0.011488047
238	0x3d2564a7	0.040379193
239	0x3d1b00cf	0.037842568
240	0xbc792533	-0.015206623
241	0x3d6d09c2	0.057870634
242	0x3cc83f3b	0.024444213
243	0x3c2ce788	0.010553248
244	0x3d603b3f	0.054744
245	0x3dc2c678	0.09510511
246	0xbcfdea0a	-0.030995388
247	0x3d348956	0.044076286
248	0x3da07e4f	0.078365915
249	0xbd1c2d5a	-0.038129188
250	0xbc6ee311	-0.014580504
251	0xbcc51635	-0.02405844
252	0xbb58a640	-0.0033058077
253	0xbd060ff5	-0.03273006
254	0x3ab7b73b	0.0014016399
255	0xbd079a9a	-0.033106424

features.7.bias f4 [64]
0	0xbcbd88bc	-0.02313649
1	0xbba5773d	-0.0050496147
2	0xbc08e16f	-0.008354529
3	0xbc94433d	-0.018098468
4	0x3b5cafcc	0.003367412
5	0x3d9953b5	0.07486669
6	0xbcd489cb	-0.025944611
7	0xbd407e47	-0.046995427
8	0x3cf9d050	0.030494839
9	0x3c98d4c8	0.01865615
10	0x3b3afbd0	0.002853144
11	0xbd10a9cd	-0.035318185
12	0x3c0f31c8	0.008739896
13	0xbcc6fe30	-0.024291128
14	0x3ca08c06	0.019598018
15	0xbc63e6ca	-0.013910005
16	0x3d95fbe0	0.07323432
17	0xbc3a998f	-0.01138915
18	0xbc02eb02	-0.007990601
19	0x3c94e766	0.018176746
20	0x3aed24b9	0.0018092609
21	0xbc71a29d	-0.014748243
22	0xbd50c818	-0.050972074
23	0xbb8bdafb	-0.004268048
24	0x3d3c0b77	0.04590937
25	0xbd44fcd1	-0.048092667
26	0xbc026215	-0.007957955
27	0x3cfdf5ea	0.03100105
28	0x3cc1aec5	0.023642907
29	0x3d4bdda8	0.049771935
30	0x3c9e4cc7	0.01932372
31	0x3cd2ce0e	0.02573302
32	0x3bb76d28	0.0055977292
33	0xbd283a6d	-0.041071344
34	0xbd36ac47	-0.04459789
35	0xbbe9cc19	-0.007134926
36	0x3d36dabd	0.0446422
37	0x3cd1a191	0.025589736
38	0xbc835895	-0.01603345
39	0xbb80b58a	-0.003927891
40	0x3d4e9b76	0.050441228
41	0x3aa78edd	0.0012783665
42	0xbd004eb8	-0.031325072
43	0xb857d06a	-5.1454095e-05
44	0x3d1cfae6	0.038325213
45	0x3c46e520	0.012139589
46	0xbcea83f4	-0.028627373
47	0xbb8b061c	-0.0042426717
48	0x3c903317	0.017602487
49	0xbd32390b	-0.04351143
50	0x3d2e6f86	0.042586826
51	0xbd4268c3	-0.04746319
52	0x3c321951	0.010870294
53	0x3c915363	0.017739957
54	0xbc82a2d8	-0.01594679
55	0x3bcc7579	0.00623959
56	0x3d36b162	0.04460276
57	0xbb09197b	-0.0020919729
58	0xbcad3786	-0.02114464
59	0xbb919640	-0.00444296
60	0xbcaef52e	-0.021357145
61	0xbd46319c	-0.048387155
62	0xbd1210bb	-0.035660487
63	0xbadf9d1d	-0.0017060373

classifier.1.weight f4 [5, 16384]
0	0xbd2e3706	-0.042532943
1	0xbca61ec5	-0.020278344
2	0xbca5c1ae	-0.020233955
3	0xbce458b0	-0.02787432
4	0xbd160ecd	-0.03663521
5	0xbcb365ad	-0.021899069
6	0xbbb75fef	-0.005596153
7	0xbbe32cc8	-0.0069328286
8	0xbd1ee4b6	-0.038792334
9	0xbcd0bc31	-0.025480362
10	0xbcd2462d	-0.025668228
11	0xbd169f48	-0.036772996
12	0xbcdc123a	-0.02686416
13	0xbce38812	-0.027774844
14	0xbd2017e1	-0.039085273
15	0xbcb95a1d	-0.022625977
16	0xbd051d6f	-0.032498773
17	0xbc3e3340	-0.011608899
18	0xbbf01310	-0.007326491
19	0xbc6cd291	-0.0144545
20	0xbd008152	-0.03137333
21	0xbcf2e537	-0.029650314
22	0xbd2df84e	-0.04247313
23	0xbd4e5b02	-0.05037976
24	0xbc82c4e0	-0.015963018
25	0x3b5e5a42	0.003392831
26	0xbcf48d70	-0.029852599
27	0xbcf10598	-0.029421613
28	0xbce08503	-0.027407175
29	0xbc2e1e37	-0.010627321
30	0xbc9629ce	-0.01833048
31	0xbcdb2190	-0.026749402
32	0xbbf8ab84	-0.0075888056
33	0xbc8c612a	-0.017136175
34	0xb8b576b6	-8.652864e-05
35	0xbbd2ebe4	-0.0064368118
36	0xbaecb960	-0.0018060617
37	0xbcf015e1	-0.029307308
38	0xbcf5c19c	-0.029999547
39	0xbd42196c	-0.047387525
40	0xbcded5b2	-0.027201507
41	0xbc41a47c	-0.011819001
42	0x395e4fac	0.0002120125
43	0x3cdf102a	0.027229387
44	0x3c87d6c2	0.016581897
45	0x3c48b272	0.012249576
46	0xbc2f97ec	-0.010717373
47	0xbd090df1	-0.03346056
48	0xba8ef433	-0.0010906517
49	0xbca856ce	-0.020549204
50	0xbcbe328c	-0.023217462
51	0x3c7bb789	0.015363582
52	0x3d0033a6	0.031299256
53	0x39f805bc	0.00047306519
54	0xbcefd53e	-0.029276486
55	0xbca344de	-0.0199303
56	0x3c39ce84	0.011340741
57	0x3cce80c8	0.025207892
58	0x3c49be59	0.012313449
59	0x3ca22123	0.019791191
60	0x3c2b52d8	0.010456763
61	0x3c07bcba	0.008284742
62	0xbcdbc1d9	-0.026825832
63	0xbd0c37fd	-0.034233082
64	0xbc480977	-0.012209288
65	0xbc77ff77	-0.015136591
66	0xbcec7b54	-0.028867401
67	0x3cb5f1ee	0.022210088
68	0x3d1d6f85	0.03843643
69	0x3c03020a	0.007996092
70	0xbcc5dd48	-0.024153367
71	0xbbfe848b	-0.007767265
72	0x3bd911ef	0.0066244523
73	0xbcb9faf2	-0.022702668
74	0xbda2dac6	-0.07951884
75	0xbcc940ae	-0.024566974
76	0xbb375def	-0.0027979573
77	0x3c254fde	0.010089843
78	0xbaae4fc4	-0.0013298918
79	0xbb99517c	-0.004678903
80	0xbd15fdad	-0.036618877
81	0xbd4c3fc5	-0.049865503
82	0xbcbd4988	-0.023106351
83	0x3caabdf7	0.020842535
84	0x3d3df04b	0.04637174
85	0x39d7456c	0.0004105972
86	0xbc9de4ba	-0.019274104
87	0xbc69f809	-0.014280328
88	0xbd099d48	-0.03359726
89	0xbd3f77c8	-0.04674509
90	0xbd4f89c4	-0.050668493
91	0xbc69a2e2	-0.014260026
92	0xbc9783ac	-0.018495403
93	0xbbb8d42f	-0.0056405286
94	0x3ab5de15	0.001387539
95	0xbc9f0873	-0.019413209
96	0xbd23f38e	-0.040027194
97	0xbd05def1	-0.032683317
98	0x3b78f037	0.0037984976
99	0x3cbd8407	0.023134245
100	0x3d1a99ef	0.03774446
101	0xbc2cfc9b	-0.010558273
102	0xbdae707d	-0.08517549
103	0xbd208b85	-0.039195556
104	0xbc5e0258	-0.0135503635
105	0xbd125f31	-0.035735313
106	0xbd51294a	-0.051064767
107	0xbce41c3f	-0.0278455
108	0xbca0a599	-0.019610213
109	0xbcca49e9	-0.024693446
110	0xbc1dd6d2	-0.009633737
111	0xbbf8171f	-0.0075711156
112	0x3982ff89	0.0002498592
113	0x3ba830b4	0.005132759
114	0x3b020ffd	0.0019845956
115	0xbb618e8e	-0.0034417245
116	0x3c67cdfc	0.014148232
117	0xbc7d9c55	-0.015479167
118	0xbdbc8c4b	-0.09206446
119	0xbd0bbc80	-0.034115314
120	0xbcf120f8	-0.029434666
121	0xbd91fa75	-0.07127849
122	0xbd943b6d	-0.07237897
123	0xbd6d6830	-0.05796069
124	0xbd33f7c0	-0.043937445
125	0xbd22dc33	-0.03976078
126	0xbc9ce902	-0.019154076
127	0xbc51139a	-0.012761021
128	0x3cf13002	0.029441837
129	0x3c0a86bc	0.008454975
130	0xbace7c49	-0.0015753593
131	0xbc269a6b	-0.010168652
132	0x3bc240a8	0.005928118
133	0xbca7284e	-0.020404961
134	0xbd2aa0cb	-0.04165725
135	0xbd20459a	-0.039128877
136	0xbd14fd6b	-0.03637449
137	0xbc2f927a	-0.010716075
138	0xbd284ba9	-0.04108778
139	0xbc958f08	-0.01825668
140	0x3c2a5121	0.010395319
141	0xbb9c24ba	-0.0047651203
142	0xbb73f147	-0.003722267
143	0xbb8fe90a	-0.004391794
144	0x3ca596db	0.020213535
145	0x3d33db05	0.043910045
146	0x3cf8d536	0.030375104
147	0x3d022103	0.031769764
148	0x3d21d852	0.03951294
149	0xbbc499dc	-0.005999787
150	0xbc0e5ed0	-0.008689597
151	0x3bc1616d	0.0059015066
152	0xbc95f726	-0.018306326
153	0xbd2a1175	-0.041520555
154	0xbd37d69b	-0.044882398
155	0xb94179cc	-0.00018451287
156	0x3b9b7f6f	0.004745416
157	0x3be0cd5d	0.0068604187
158	0xbb970d91	-0.0046097715
159	0x3b948566	0.004532504
160	0x3ce69526	0.028147291
161	0x3ccb0719	0.024783658
162	0x3d32578c	0.043540522
163	0x3c72fcba	0.0148307625
164	0x3d2a6b09	0.041605983
165	0x3cd76220	0.026291907
166	0xbc89803d	-0.016784782
167	0x3c8170f8	0.015800938
168	0xbbc54ff3	-0.0060214936
169	0xbd0419a7	-0.032251026
170	0xbd7cf619	-0.061758135
171	0xbc5b5054	-0.013385851
172	0x3b7c53cb	0.0038502093
173	0xbc35e218	-0.011101268
174	0xbc59a452	-0.013283806
175	0xbb93eaa3	-0.004514055
176	0x3cbc712a	0.02300318
177	0x3ba673df	0.005079731
178	0x3cf593f9	0.029977785
179	0x3c9ebbfc	0.019376747
180	0x3c9860cf	0.01860085
181	0x3d081443	0.033222448
182	0xbafaf7d9	-0.0019147351
183	0x3cd16d26	0.025564741
184	0x3cb8f5ea	0.022578198
185	0xbc80dd88	-0.015730634
186	0xbd217bee	-0.03942483
187	0xbd05fc23	-0.03271116
188	0x3bd6980f	0.0065488885
189	0x3c1d95db	0.009618248
190	0x3c920f94	0.017829694
191	0x3c2a7032	0.010402726
192	0x3b60f7fc	0.0034327498
193	0x3baf8c56	0.0053573055
194	0x3cead5d9	0.028666424
195	0xbc85eac4	-0.016347297
196	0xbcde1cda	-0.027113367
197	0x3d127d53	0.03576405
198	0xbc36cccb	-0.011157225
199	0xbca23bf2	-0.019803975
200	0xbb65f0b2	-0.0035086093
201	0xbd2f01eb	-0.04272644
202	0xbca2c2d8	-0.0198683
203	0xbba69653	-0.005083838
204	0x3c384863	0.011247727
205	0x3c899944	0.016796716
206	0x3d032f7f	0.032027718
207	0x3cafc66c	0.02145692
208	0x3c165023	0.0091743795
209	0x3985703b	0.00025451355
210	0x3c5aecca	0.013362119
211	0xbc57027e	-0.013123153
212	0x3b2fa84b	0.0026803191
213	0x3d12d3f2	0.035846658
214	0xbd16b6a6	-0.03679528
215	0xbcc39418	-0.023874328
216	0xbbb4a43e	-0.0055127433
217	0xbc147c9b	-0.009062911
218	0xbcdb2948	-0.026753083
219	0xbcdc6d8f	-0.02690771
220	0xba24704e	-0.0006272838
221	0x3b9a93e6	0.004717338
222	0x3ca64993	0.020298755
223	0x3cedc45a	0.029024292
224	0x3c93cf17	0.018043084
225	0x3bbe7c41	0.005813152
226	0xbbd02fc0	-0.0063533485
227	0xbc83181f	-0.016002713
228	0x3bf3b1e2	0.007436977
229	0x3d00b3e4	0.031421557
230	0xbb7164b3	-0.0036833703
231	0xbc2df83d	-0.010618267
232	0x3b30db05	0.0026986015
233	0x3c91d475	0.017801503
234	0x3cb456ed	0.022014106
235	0xbb26616a	-0.0025387653
236	0xbae5e305	-0.001753897
237	0x3ccdf464	0.025140949
238	0x3d17207f	0.036896225
239	0x3d01e8e1	0.03171623
240	0xbaf6abe6	-0.001881954
241	0x3b545af6	0.003240285
242	0xbc7457fe	-0.014913557
243	0xbcccd1ea	-0.025002439
244	0x3c5bc8ff	0.01341462
245	0x3d0e15e2	0.034688838
246	0x3bebb869	0.0071936143
247	0x3a8e2238	0.0010843938
248	0xbcd63a5d	-0.026150877
249	0xbb3dfd70	-0.0028990172
250	0x3ce778b6	0.028255802
251	0xbb42ef0f	-0.002974454
252	0xbd259660	-0.040426612
253	0xbacb5c22	-0.0015515129
254	0x3c4b5c6d	0.012412173
255	0x3d2ea118	0.0426341

classifier.1.bias f4 [5]
0	0x3c0205f1	0.007935987
1	0x3ca34d47	0.01993431
2	0xbbef23a6	-0.007297951
3	0xbb6089af	-0.0034261753
4	0xbc22891a	-0.009920383
